config/saves/training_weights/simple_spread/ddpg_weights/actorWeights.pth (torch, 655996 bytes, 8 tensors)

actionNet.0.weight f4 [256, 403]
-0.028621078 0.078181 0.2809564 -0.056468576 0.1641139 -0.04244976 0.1322748 0.0029445044
-0.012563537 0.017988196 -0.022698212 -0.011712163 -0.02797647 -0.06454851 0.020428017 -0.06118029
0.021180946 0.037222456 -0.023287723 -0.030087588 -0.10064074 -0.044262134 -0.09922593 -0.0006158545
0.13404676 -0.0248361 -0.04036315 -0.0049004066 0.06580784 0.036476895 3.8069233e-05 0.009552989
-0.16214865 -0.32665384 0.0030105633 -0.21362048 0.046817314 -0.0343325 0.041575223 -0.074286394
0.03358869 -0.06286914 -0.014583071 -0.25464177 -0.068369046 -0.034785517 -0.06492955 0.05840946
-0.10148614 0.17563868 0.009925637 0.079198025 0.085289024 -0.068894 -0.028594332 0.00021267163
0.0073382817 0.08950225 0.012853682 -0.035079446 0.00467693 0.030665085 -0.042019136 -0.16768187
0.024931705 -0.074596494 0.00069498015 0.2070029 0.009070898 0.0701337 0.29834127 -0.02051126
0.07484771 -0.03036328 0.03759525 -0.0600989 -0.23935461 0.029627278 0.033829194 -0.19175884
0.072179526 0.016871717 0.20203134 -0.04285311 5.2857795e-06 -0.014994216 -0.017030641 -0.015704652
-0.011944224 0.046650667 -0.034599695 0.05318867 -0.020452451 0.016787373 0.010981608 -0.0028686607
-0.04001771 -0.034931358 0.05415459 -0.026763914 0.04077733 -0.024742648 0.02788962 0.04738068
-0.040176623 0.007979029 0.041981414 0.045299612 0.041244134 -0.02041394 -0.0064295386 -0.004561462
0.022570867 -0.030005118 0.0072228955 0.03085868 0.049581308 0.008414727 0.0061014257 0.020486837
-0.035196304 0.04014629 -0.0026749643 -0.026522512 0.004984051 0.05634897 -0.0063583846 0.024425652
-0.008483134 0.021342466 0.009765128 0.05556221 0.0288402 -0.033434425 -0.009596566 -0.016854288
0.05221676 -0.027624076 0.025748003 -0.027582655 -0.024739105 -0.03171854 0.031315718 0.03551216
-0.00025756424 -0.0051593063 0.038744964 0.03994899 -0.012119178 0.013783306 0.041270964 -0.020877594
0.016762637 -0.011788961 0.053449735 -0.033862703 0.00021442275 -0.017560968 -0.03698401 -0.0095635075
0.03484383 0.054064292 0.040650804 0.099618725 0.09609832 -0.045874737 -0.09249944 0.01563641
0.050388236 0.06215064 0.024376104 -0.0048462213 0.052569233 0.027823795 0.04607705 0.16246651
0.16934623 -0.025966205 -0.09577063 -0.11563111 0.013766634 -0.021583943 -0.084704526 -0.015658967
-0.064037964 -0.08332294 0.024531256 0.15235238 0.042131275 0.043419734 -0.0810263 0.14044946
-0.071103156 0.05405038 0.017897822 0.048870884 0.044039164 -0.008558214 0.037733458 0.10578455
-0.070224814 -0.07546402 -0.029459251 0.049024314 0.060472913 -0.06172151 -0.12480378 0.05845243
0.09344826 -0.1587511 -0.08307905 0.053989735 -0.04424234 0.04150421 0.08663906 0.000104434555
-0.02603494 -0.006295565 -0.09093698 -0.08636336 -0.085924186 -0.049299203 -0.06494995 -0.05134818
-0.048986465 -0.04900179 0.034740724 0.040789224 0.053135365 0.016873766 -0.028799113 0.14684623
0.12424821 0.019236827 -0.09265806 -0.12227866 0.036213737 -0.034507573 0.024922252 -0.041178036
0.026055034 0.029702494 0.0698441 0.030437296 0.05263643 -0.019760173 -0.053651772 0.013464103
-0.044269603 -0.043018226 0.035537094 0.014498316 -0.017951425 -0.0312573 -0.013985156 -0.03820323
00000000: c076 eabc 5c1d a03d 84d9 8f3e 984b 67bd
00000010: 790d 283e cddf 2dbd 0c73 073e 96f8 403b
00000020: 4bd7 4dbc fb5b 933c 9af1 b9bc 5fe4 3fbc
00000030: e92e e5bc 0232 84bd a858 a73c 2f98 7abd
00000040: aa83 ad3c 9376 183d e5c5 bebc 3f7a f6bc
00000050: bb1c cebd 364c 35bd f736 cbbd 4c71 21ba
00000060: 8e43 093e 1475 cbbc d553 25bd 9793 a0bb
00000070: 43c6 863d cc68 153d 87ac 1f38 2484 1c3c
00000080: 4c0a 26be 2c3f a7be df4c 453b 54bf 5abe
00000090: 83c3 3f3d 3ca0 0cbd c84a 2a3d 7723 98bd
000000a0: 4b94 093d 89c1 80bd d5ed 6ebc 6860 82be
000000b0: 1205 8cbd 427b 0ebd c9f9 84bd c23e 6f3d
000000c0: f7d7 cfbd a0da 333e 249f 223c 9332 a23d
000000d0: 03ac ae3d 4c18 8dbd a93e eabc 9b00 5f39
000000e0: f875 f03b f54c b73d 4098 523c 77af 0fbd
000000f0: ef40 993b 5835 fb3c 421c 2cbd ccb4 2bbe
00000100: 933d cc3c 0cc6 98bd 542f 363a 91f8 533e
00000110: 1b9e 143c 42a2 8f3d 30c0 983e 3b07 a8bc
00000120: c249 993d 6abc f8bc 7afd 193d 442a 76bd
00000130: 6019 75be e8b4 f23c 7b90 0a3d 6e5c 44be
00000140: dcd2 933d 8e36 8a3c 4ee1 4e3e be86 2fbd
00000150: 805c b136 4daa 75bc d883 8bbc 0ba7 80bc
00000160: b5b1 43bc c514 3f3d 69b8 0dbd 5ddc 593d
00000170: e68b a7bc ac85 893c 34ec 333c 2400 3cbb
00000180: 9ce9 23bd 2f14 0fbd 34d1 5d3d ff3f dbbc
00000190: 2106 273d 18b1 cabc c678 e43c 3e12 423d
000001a0: 3e90 24bd 79ba 023c b4f4 2b3d 168c 393d
000001b0: 9cef 283d 233b a7bc e1ae d2bb 5178 95bb
000001c0: 8ae6 b83c 4bcd f5bc 0aae ec3b 58cb fc3c
000001d0: c515 4b3d ecdd 093c 78ee c73b 03d4 a73c
000001e0: 002a 10bd 7070 243d 744e 2fbb bd45 d9bc
000001f0: 4051 a33b 2dce 663d ff59 d0bb 4e18 c83c
00000200: d8fc 0abc 65d6 ae3c eafd 1f3c 3395 633d
00000210: 4842 ec3c 89f2 08bd ea3a 1dbc 0112 8abc
00000220: 3ee1 553d e34b e2bc 7aed d23c 05f5 e1bc
00000230: aaa9 cabc 4deb 01bd e944 003d 3375 113d
00000240: b009 87b9 660f a9bb 0ab3 1e3d 8da1 233d
00000250: 848f 46bc 60d3 613c be0b 293d 7d07 abbc
00000260: cc51 893c 7c26 41bc 1cee 5a3d 9eb3 0abd
00000270: abd6 6039 05dc 8fbc 8c7c 17bd 42b0 1cbc
00000280: 67b8 0e3d 8572 5d3d 7581 263d e704 cc3d
00000290: 32cf c43d 26e7 3bbd 5970 bdbd ee17 803c
000002a0: e563 4e3d ab91 7e3d 65b0 c73c 0dcd 9ebb
000002b0: d652 573d baee e33c 4abb 3c3d 9f5d 263e
000002c0: 1969 2d3e 14b7 d4bc 6423 c4bd 01d0 ecbd
000002d0: 738d 613c cfd0 b0bc 9179 adbd 3c47 80bc
000002e0: 5626 83bd 38a5 aabd c6f5 c83c 4302 1c3e
000002f0: d891 2c3d e4d8 313d 1ef1 a5bd fcd1 0f3e
00000300: 889e 91bd ee63 5d3d 749e 923c d62c 483d
00000310: 6962 343d c037 0cbc 668e 1a3d 92a5 d83d
00000320: 07d2 8fbd e18c 9abd 8754 f1bc b8cd 483d
00000330: 72b2 773d b2cf 7cbd 2099 ffbd d16b 6f3d
00000340: cd61 bf3d a68f 22be 5925 aabd 5724 5d3d
00000350: 7537 35bd 5200 2a3d d26f b13d e003 db38
00000360: 3a47 d5bc 074b cebb 2b3d babd 46df b0bd
00000370: 05f9 afbd f6ed 49bd 7b04 85bd 7852 52bd
00000380: 08a6 48bd 1ab6 48bd 4a4c 0e3d 9a12 273d
00000390: 78a4 593d da3a 8a3c 1eec ebbc dc5e 163e
000003a0: d875 fe3d 8d96 9d3c 82c3 bdbd 3c6d fabd
000003b0: db54 143d d057 0dbd c029 cc3c 4daa 28bd
000003c0: 5e71 d53c a552 f33c 6c0a 8f3d a357 f93c
000003d0: 4c99 573d 16e0 a1bc f6c1 5bbd 8b98 5c3c
000003e0: 0b54 35bd e133 30bd 588f 113d 588a 6d3c
000003f0: de0e 93bc a807 00bd ff21 65bc fd7a 1cbd

actionNet.0.bias f4 [256]
0.048307616 -0.009383023 0.011564519 0.07096873 0.009040881 0.02406039 0.03834124 0.012188448
-0.023352815 0.020729046 0.06104584 -0.0012371116 -0.013959147 0.07077941 -0.039743677 -0.04015086
0.007550168 0.0306276 0.008052559 0.015153411 -0.03826971 0.046566885 0.019065773 -0.0053298967
0.029371813 0.015984422 0.029362587 0.013496807 0.005092478 0.018307883 0.061481204 0.014466693
0.037055302 -0.026839636 0.05079477 0.0068974276 0.036818203 -0.033227403 0.016247213 -0.014970898
-0.019321188 0.047068812 0.06603569 0.037420273 0.009642923 0.055566538 0.044940524 0.0308409
0.022717223 0.020512804 -0.02419484 0.0016360524 -0.018923627 0.022336902 0.054066952 -0.010696158
0.032121006 0.028486466 0.03735939 -0.01901995 -0.0032810115 0.04675352 0.04630176 0.031688966
0.05056616 0.069136515 -0.018242113 -0.037344605 0.028932402 0.007863314 0.029669879 0.05961471
0.024784844 -0.020748857 -0.015615271 0.00022624037 -0.03571435 0.03903235 0.058553856 -0.017940106
0.027681557 0.033340532 -0.01822731 0.021016227 -0.0026924761 0.048474997 0.019932633 0.050692927
-0.018126795 0.01907649 -0.024976365 -0.041904185 0.021067005 0.03154815 0.009425273 -0.017634917
0.023002183 -0.023203157 -0.035394937 0.024908042 -0.02110128 -0.04460589 0.0072858175 -0.012037949
0.026389288 -0.044011742 -0.021968873 0.059365988 0.057907633 0.021937301 0.041564453 -0.0194962
0.0029261718 0.008131152 0.011430267 -0.020755287 0.026587453 -0.0072785877 0.049187202 -0.0045994637
0.00093937234 -0.0015804004 0.014118783 0.03698284 -0.0012761273 0.02524509 -0.0051517948 -0.024931831
-0.047723506 0.058260478 -0.026318656 0.015108511 -0.004774558 0.043793935 -0.0045956485 0.020883815
-0.0018561147 0.07386941 0.020442197 0.010717014 0.031960808 0.031706166 -0.019293858 -0.023437504
-0.012311394 0.010778026 0.08208679 0.044199497 0.022814916 0.043907616 -0.022643145 0.05643457
-0.014546652 0.039804425 -0.040481072 0.043589767 -0.0018453327 -0.02425281 -0.016304804 0.0029728839
0.00862284 -0.018807027 0.03253764 -0.020834424 0.04267316 -0.00078354584 0.02201593 0.00949844
-0.00919692 0.045232534 -0.0288375 -0.037880786 0.039004497 0.056934603 -0.013879358 -0.014792154
0.050556768 0.019911082 0.030769 -0.020933667 0.023872383 -0.010907718 0.055293147 0.003391782
0.00026290456 -0.041197058 -0.005228958 -0.02260524 -0.04878483 -0.043822188 0.05673813 -0.031721383
-0.032873265 0.0061289044 -0.04255208 -0.006301098 -0.0060254578 0.024294725 -0.008570963 0.03807052
0.017840486 0.010199745 0.001967781 -0.020786658 -0.04123778 -0.012127089 0.050515056 -0.035308067
0.017488213 -0.033907197 0.04573179 -0.0016264715 0.04467903 -0.008525985 0.05199852 0.03005101
0.014231205 -0.006078894 -0.04289537 -0.011076175 0.08582194 0.020170864 0.056940638 -0.0085897185
-0.035963234 0.044854235 -0.022249525 -0.017709572 0.03658849 -0.0033978636 0.025550522 0.0034203036
0.055800926 0.0050387075 -0.034990914 -0.004678955 -0.03788959 -0.01925726 0.024191312 0.055214312
-0.029888429 0.0042339982 -0.03590694 -0.02964355 -0.046184555 0.01778057 0.027266918 -0.0375844
0.05388556 -0.009837873 0.0058851005 0.052532207 -0.0028599147 0.02677277 0.042315986 -0.024276821
00000000: 35de 453d 40bb 19bc 1c79 3d3c 0e58 913d
00000010: 3420 143c 4c1a c53c b40b 1d3d 0eb2 473c
00000020: 674e bfbc f6cf a93c 340b 7a3d 9426 a2ba
00000030: e8b4 64bc ccf4 903d 44ca 22bd 3a75 24bd
00000040: 6667 f73b bce6 fa3c e1ee 033c 0346 783c
00000050: b3c0 1cbd ebbc 3e3d d32f 9c3c 6aa6 aebb
00000060: 289d f03c c3f1 823c cf89 f03c b621 5d3c
00000070: cdde a63b 6afa 953c b7d3 7b3d b505 6d3c
00000080: 4dc7 173d ccde dbbc 2d0e 503d d103 e23b
00000090: afce 163d 7519 08bd e018 853c 7f48 75bc
000000a0: 7847 9ebc 3acb 403d b83d 873d 0046 193d
000000b0: 5afd 1d3c bd99 633d 8e13 383d 0ea6 fc3c
000000c0: 7819 ba3c 780a a83c 4234 c6bc cf70 d63a
000000d0: b905 9bbc e1fb b63c 4f75 5d3d f03e 2fbc
000000e0: 5191 033d 735c e93c 2906 193d bacf 9bbc
000000f0: 3d06 57bb 9e80 3f3d eaa6 3d3d 4acc 013d
00000100: 761e 4f3d 7297 8d3d 7c70 95bc a8f6 18bd
00000110: a503 ed3c 21d5 003c 3f0e f33c 8e2e 743d
00000120: 9609 cb3c 82f9 a9bc 32d7 7fbc f03a 6d39
00000130: 3649 12bd 63e0 1f3d 2bd6 6f3d 21f7 92bc
00000140: 6fc4 e23c 1590 083d 7151 95bc 392a ac3c
00000150: 4174 30bb b88d 463d c349 a33c 63a3 4f3d
00000160: a57e 94bc 4d46 9c3c 3c9b ccbc b9a3 2bbd
00000170: b694 ac3c a238 013d 766c 1a3c 1a77 90bc
00000180: 136f bc3c 8c14 bebc 48fa 10bd f30b cc3c
00000190: 97dc acbc aab4 36bd debd ee3b d13a 45bc
000001a0: 592e d83c a845 34bd 11f8 b3bc c029 733d
000001b0: 8e30 6d3d dbb5 b33c 7d3f 2a3d 7fb6 9fbc
000001c0: 04c5 3f3b 8638 053c 0446 3b3c fe06 aabc
000001d0: eecd d93c 3881 eebb 8578 493d 19b7 96bb
000001e0: 3640 763a 7025 cfba 7852 673c 527b 173d
000001f0: ba43 a7ba cace ce3c 63d0 a8bb d73d ccbc
00000200: b979 43bd 8aa2 6e3d 399a d7bc b089 773c
00000210: e573 9cbb 4561 333d 1897 96bb 8914 ab3c
00000220: e048 f3ba d848 973d 6576 a73c 6a96 2f3c
00000230: 56e9 023d 53de 013d 270e 9ebc 0200 c0bc
00000240: bbb5 49bc 5196 303c 1e1d a83d 880a 353d
00000250: 59e6 ba3c 79d8 333d 1e7e b9bc f027 673d
00000260: 1555 6ebc f709 233d 7bcf 25bd 2f8b 323d
00000270: 17df f1ba d4ad c6bc a791 85bc b7d4 423b
00000280: d046 0d3c 3211 9abc 3046 053d f4ac aabc
00000290: 0dca 2e3d df66 4dba c05a b43c 589f 1b3c
000002a0: aeae 16bc c045 393d 9f3c ecbc e228 1bbd
000002b0: 2ec3 1f3d 4234 693d 3f66 63bc ca5a 72bc
000002c0: 9d14 4f3d 911c a33c 450f fc3c 157d abbc
000002d0: 0490 c33c 49b6 32bc 117b 623d a948 5e3b
000002e0: 74d6 8939 3fbe 28bd ae57 abbb a02e b9bc
000002f0: 9ad2 47bd e57e 33bd 3e66 683d 48ee 01bd
00000300: 1ea6 06bd fad4 c83b 174b 2ebd 7179 cebb
00000310: 3471 c5bb bb05 c73c 396d 0cbc d5ef 1b3d
00000320: 3626 923c d51c 273c e3f5 003b c848 aabc
00000330: f2e8 28bd b3b0 46bc e0e8 4e3d 319f 10bd
00000340: 7143 8f3c 46e2 0abd 4251 3b3d 542f d5ba
00000350: 5c01 373d 93b0 0bbc 66fc 543d 892d f63c
00000360: 002a 693c 7531 c7bb 0eb3 2fbd d878 35bc
00000370: 6ac3 af3d 5e3d a53c 963a 693d e4bb 0cbc
00000380: 2f4e 13bd 13b9 373d a344 b6bc aa13 91bc
00000390: d0dd 153d b1ae 5ebb 544f d13c 2c27 603b
000003a0: 838f 643d be1b a53b a252 0fbd eb51 99bb
000003b0: 1d32 1bbd 67c1 9dbc dc2c c63c 6728 623d
000003c0: 94d8 f4bc 5abd 8a3b 2813 13bd 08d7 f2bc
000003d0: 042c 3dbd 8fa8 913c df5e df3c 1af2 19bd
000003e0: 1bb7 5c3d 082f 21bc cdd7 c03b 032c 573d
000003f0: 686d 3bbb 9152 db3c 8753 2d3d 2fe0 c6bc

actionNet.2.weight f4 [128, 256]
-0.025375428 0.021379821 -0.0303575 0.048548535 0.054387294 0.07620757 -0.08415016 0.08916626
0.048864573 0.002483303 0.006678473 0.09040999 0.0123016955 0.03499868 -0.032171078 -0.040888555
-0.062080506 0.014427848 -0.02283667 -0.05723105 0.027726024 0.03854345 0.01663347 0.047034588
-0.17376663 0.047542308 0.025731675 -0.044938788 -0.057988875 0.067256935 0.08033581 -0.060988683
0.05348301 0.009360923 -0.025555663 0.044265024 0.027174165 0.054041766 0.030299861 0.009604592
-0.09209943 0.08289798 0.079299435 -0.032598108 0.04294504 0.059954226 -0.058374267 -0.089467764
-0.04302858 -0.016602874 0.007827148 0.00092148036 0.028153218 0.04071351 0.05957662 -0.044341713
-0.02228776 -0.0688756 -0.023896933 -0.04502038 0.05312277 -0.07689444 0.029486515 -0.089038625
-0.014639478 0.11046219 -0.061243873 -0.07419188 0.014356819 0.056149475 0.013604385 0.03759922
0.023648849 -0.047883768 0.012304803 -0.027310023 -0.039433308 0.09652428 0.04078625 0.030806439
-0.11331417 0.027449178 -0.01992745 -0.03464782 0.007874495 -0.009276219 0.057723194 -0.061928537
-0.056234006 0.10600668 -0.0051174313 -0.0181161 0.006623878 -0.09360745 0.007911902 -0.0013264567
0.031158082 0.064875916 -0.008847466 -0.08391804 0.089435734 -0.07305118 -0.013970061 0.05133477
0.14386316 0.13498655 -0.08907297 -0.03312627 0.09558212 0.0852927 -0.08458206 0.022311509
-0.05363058 -0.015009895 -0.09093075 -0.0103012 -0.07580678 -0.052164014 -0.0002063915 -0.02526196
0.120501205 0.05562027 -0.08821099 0.010063054 -0.03204138 0.041333266 0.10252774 0.1263377
0.04929358 0.08823617 0.04352075 -0.054385737 -0.0323721 -0.014337832 -0.08073778 -0.012378604
-0.019441318 0.06677814 -0.009115845 -0.016962726 0.12965275 0.03824111 -0.057614528 -0.034237824
0.011217539 -0.07485659 0.047672406 -0.036118463 -0.047409594 -0.05589361 -0.0061701653 0.04342661
-0.005159214 -0.04896002 -0.05081172 -0.035464972 -0.22238337 -0.03844651 0.033751458 -0.058201276
0.06280637 -0.08013031 0.043893315 -0.10323568 -0.06754983 0.024121264 0.036084533 -0.02237102
-0.056591015 0.017775215 -0.041360244 0.113806255 -0.056935 0.0049293637 -0.086418256 -0.018451873
0.013574629 -0.010424136 0.0057527423 0.059817743 0.063667156 -0.061838627 0.11185068 0.0045813504
-0.06544602 0.024413567 -0.064344935 0.05014041 -0.045911007 -0.06102199 -0.0024366458 0.007699349
0.20927952 0.015576057 -0.004057126 0.045788694 0.053828735 -0.06774549 -0.04922063 -0.08480131
0.034970626 0.03911025 0.07766193 0.096480474 0.00010459125 0.019826373 -0.006568461 -0.013599753
0.00846044 -0.048068143 0.12173285 0.04141622 -0.047084227 0.0068434775 -0.013296824 -0.046329714
-0.025947262 -0.02534759 0.05868975 -0.05204784 0.06339862 -0.05489001 0.030894168 0.008275417
-0.011013828 -0.081430316 0.028045163 0.0087846 -0.08597233 -0.084598854 0.005519188 0.10182396
0.042463426 -0.0145301 0.008185545 0.007947526 0.05134169 -0.034206063 0.04231888 0.069366395
0.053136345 0.06843526 -0.04869431 0.02275426 -0.04820534 -0.057603538 0.0029312596 0.009179927
0.072447166 0.045679655 -0.012860435 0.011442824 -0.011378068 0.053873274 0.018779851 0.00020967537
00000000: 21e0 cfbc bc24 af3c 4bb0 f8bc d4da 463d
00000010: 36c5 5e3d b712 9c3d eb56 acbd cd9c b63d
00000020: 3826 483d e9be 223b 18d7 da3b df28 b93d
00000030: 0d8d 493c c75a 0f3d d2c5 03bd c27a 27bd
00000040: 2148 7ebd c862 6c3c f813 bbbc 1b6b 6abd
00000050: b021 e33c bddf 1d3d ea42 883c 57a7 403d
00000060: e1ef 31be b9bb 423d 3ccb d23c bc11 38bd
00000070: be85 6dbd 01be 893d 1a87 a43d 45cf 79bd
00000080: 0011 5b3d 8f5e 193c 1c5a d1bc 3e4f 353d
00000090: 5b9c de3c e65a 5d3d 6a37 f83c 945c 1d3c
000000a0: a09e bcbd 6bc6 a93d be67 a23d 9885 05bd
000000b0: 23e7 2f3d 9092 753d db19 6fbd e03a b7bd
000000c0: bc3e 30bd c002 88bc 703d 003c 808f 713a
000000d0: 94a1 e63c 36c3 263d 9d06 743d a89f 35bd
000000e0: d294 b6bc a70e 8dbd 80c3 c3bc 4a67 38bd
000000f0: 4397 593d d57a 9dbd b48d f13c e259 b6bd
00000100: 6cda 6fbc 003a e23d dbda 7abd eaf1 97bd
00000110: dd38 6b3c fefc 653d ede4 5e3c a401 1a3d
00000120: 3bbb c13c c521 44bd 169a 493c 45b9 dfbc
00000130: d284 21bd 86ae c53d 7c0f 273d c95d fc3c
00000140: 4211 e8bd 19dd e03c e43e a3bc dfea 0dbd
00000150: 0704 013c 48fb 17bc 286f 6c3d c7a8 7dbd
00000160: a155 66bd 081a d93d 20b0 a7bb 3768 94bc
00000170: 1e0d d93b 43b5 bfbd eca0 013c 80dc adba
00000180: 3c3f ff3c aadd 843d f6f4 10bc 39dd abbd
00000190: 152a b73d db9b 95bd afe2 64bc 6844 523d
000001a0: dd50 133e ea39 0a3e e46b b6bd 69af 07bd
000001b0: 8fc0 c33d f0ad ae3d 5c39 adbd a0c6 b63c
000001c0: bdab 5bbd 10ec 75bc e739 babd 5dc6 28bc
000001d0: 9640 9bbd efa9 55bd cc6a 58b9 2cf2 cebc
000001e0: 56c9 f63d 15d2 633d f7a7 b4bd 82df 243c
000001f0: d23d 03bd 124d 293d 10fa d13d ac5e 013e
00000200: 11e8 493d 2ab5 b43d d042 323d 94c3 5ebd
00000210: 9b98 04bd 3ae9 6abc d959 a5bd a1cf 4abc
00000220: 6643 9fbc fac2 883d a05a 15bc 6af5 8abc
00000230: b1c3 043e b6a2 1c3d 36fd 6bbd f63c 0cbd
00000240: c5c9 373c 694e 99bd 2444 433d f4f0 13bd
00000250: 9030 42bd b3f0 64bd 192f cabb 1ae0 313d
00000260: a00e a9bb 4d8a 48bd f31f 50bd b843 11bd
00000270: 77b8 63be 167a 1dbd f83e 0a3d 7664 6ebd
00000280: a0a0 803d 5c1b a4bd 7ac9 333d 3a6d d3bd
00000290: 9157 8abd f599 c53c 60cd 133d 6e43 b7bc
000002a0: fbcb 67bd 549d 913c 5c69 29bd 4113 e93d
000002b0: ad34 69bd 8086 a13b 0efc b0bd 6228 97bc
000002c0: 1f68 5e3c ffc9 2abc 8081 bc3b 7303 753d
000002d0: ed63 823d 804a 7dbd f811 e53d 271f 963b
000002e0: 9008 86bd f6fe c73c 47c7 83bd 0860 4d3d
000002f0: 2e0d 3cbd 32f2 79bd 22b0 1fbb d24a fc3b
00000300: 5f4d 563e b832 7f3c a4f1 84bb ed8c 3b3d
00000310: 857b 5c3d 26be 8abd 929b 49bd 4fac adbd
00000320: 5c3d 0f3d 1232 203d 380d 9f3d 8e97 c53d
00000330: 0058 db38 eb6a a23c 3f3c d7bb 80d1 5ebc
00000340: a89d 0a3c 1ae3 44bd 134f f93d 0ea4 293d
00000350: 64db 40bd 403f e03b ecda 59bc 3ac4 3dbd
00000360: 5a8f d4bc c0a5 cfbc aa64 703d 1e30 55bd
00000370: 23d7 813d 59d4 60bd c415 fd3c 9d95 073c
00000380: 5873 34bc f0c4 a6bd f8be e53c 48ed 0f3c
00000390: 4312 b0bd 2a42 adbd 4eda b43b 1589 d03d
000003a0: 21ee 2d3d a80f 6ebc aa1c 063c 5736 023c
000003b0: aa4b 523d a81b 0cbd 9056 2d3d f80f 8e3d
000003c0: 7fa5 593d c927 8c3d af73 47bd 2467 ba3c
000003d0: f672 45bd b0f1 6bbd 601a 403b 6867 163c
000003e0: 2e5f 943d 971a 3b3d 93b4 52bc af7a 3b3c
000003f0: 136b 3abc 39aa 5c3d 34d8 993c 4edc 5b39

actionNet.2.bias f4 [128]
0.004937214 -0.03518086 0.05084959 0.044386223 0.06644082 0.053297132 0.042912185 0.0020746377
0.03184499 -0.057564825 0.011713556 -0.052964885 -0.008093451 -0.033353627 0.074089676 0.06365962
-0.025209695 0.06979589 0.0026292321 -0.05632893 -0.008334711 0.030151037 0.031628937 0.013761701
0.021764427 -0.025856847 -0.0012241441 0.05295591 -0.05413858 0.09577322 -0.021880528 -0.029217284
-0.041570913 -0.04024679 -0.029296562 -0.0029600102 -0.013372852 0.04521757 0.05274288 0.038506016
-0.01128929 0.005386103 0.037321106 -0.04122013 -0.032733817 0.024429709 -0.02903274 0.052836936
0.08125093 -0.06171138 -0.038052764 0.023273576 0.021817457 0.09216047 0.042400327 0.039819494
0.013721439 0.0011641998 0.0031184757 0.021524556 0.012198406 -0.05557867 0.060338248 -0.028053341
0.060467485 0.06287608 -0.015748635 0.007982067 0.025096271 -0.05859792 0.029800003 0.066455476
-0.0068254494 -0.042709768 -0.009812053 0.01222633 0.010961938 -0.009818687 0.05673465 0.05496961
0.062232215 -0.015996076 -0.019239228 0.007512152 0.015250578 0.060258698 0.026940145 0.07890197
0.016170241 0.037000712 0.07414086 -0.024899855 -0.0016652597 0.012601052 -0.04878 0.04334687
0.05084564 0.06954387 0.0056443405 0.013850305 0.113469 0.03748765 0.1276031 -0.062422726
-0.016436815 0.0025896057 0.02172188 -0.043440744 -0.01849182 0.00024461356 0.021375658 0.09851798
0.030926188 -0.0066642915 0.05054694 -0.052071664 0.015960446 -0.06148681 -0.04583727 -0.031275865
0.01787567 0.012052059 -0.03692825 0.05804359 -0.04120207 0.00657016 -0.013880503 0.0036065062
00000000: 5ac8 a13b ce19 10bd a947 503d 54ce 353d
00000010: 2012 883d 184e 5a3d b0c4 2f3d a5f6 073b
00000020: e46f 023d 18c9 6bbd 37ea 3f3c b5f1 58bd
00000030: 659a 04bc d09d 08bd 54bc 973d fa5f 823d
00000040: 9084 cebc 26f1 8e3d 324f 2c3b 2ab9 66bd
00000050: 508e 08bc 4fff f63c 588d 013d c278 613c
00000060: 504b b23c bdd1 d3bc 7673 a0ba 4ce8 583d
00000070: 6ac0 5dbd c024 c43d cb3e b3bc 1659 efbc
00000080: 4346 2abd d1d9 24bd 58ff efbc bbfc 41bb
00000090: ce19 5bbc 0f36 393d eb08 583d 7cb8 1d3d
000000a0: b7f6 38bc e87d b03b 04de 183d 70d6 28bd
000000b0: e513 06bd d020 c83c 12d6 edbc 8b6b 583d
000000c0: e366 a63d 12c5 7cbd 37dd 1bbd 3aa8 be3c
000000d0: 86ba b23c a1be bc3d f7ab 2d3d c419 233d
000000e0: e3cf 603c 1098 983a 575f 4c3b 4454 b03c
000000f0: d3db 473c 76a6 63bd 3d25 773d 1fd0 e5bc
00000100: c1ac 773d 2dc5 803d 4803 81bc 37c7 023c
00000110: b296 cd3c 5f04 70bd 231f f43c cf19 883d
00000120: 05a8 dfbb 70f0 2ebd bcc2 20bc f250 483c
00000130: b399 333c 8fde 20bc 9862 683d d027 613d
00000140: 35e7 7e3d 340a 83bc 969b 9dbc 8028 f63b
00000150: 8fdd 793c d3d1 763d 94b1 dc3c 5b97 a13d
00000160: 7477 843c 0f8e 173d 2ad7 973d c8fa cbbc
00000170: d844 daba a574 4e3c 8acd 47bd 7d8c 313d
00000180: 8543 503d 046d 8e3d 29f4 b83b 64ec 623c
00000190: 6f62 e83d a68c 193d 63aa 023e f9ae 7fbd
000001a0: 80a6 86bc 60b6 293b 16f2 b13c ecee 31bd
000001b0: 287c 97bc 7a3f 8039 011c af3c cbc3 c93d
000001c0: eb58 fd3c 2160 dabb 4f0a 4f3d 1949 55bd
000001d0: 7bbf 823c 98d9 7bbd dcbf 3bbd 1f1b 00bd
000001e0: ff6f 923c 0076 453c 1442 17bd 1ebf 6d3d
000001f0: 80c3 28bd 7f4a d73b 0d6b 63bc 225b 6c3b

actionNet.4.weight f4 [128, 128]
-8.7232635e-05 0.07848217 -0.0016488732 0.0015125873 -0.075950705 0.036364798 0.060534284 0.08955045
-0.00038031006 0.0053457483 0.046178006 0.022169199 -0.0315592 0.07565378 -0.05818078 0.008379434
-0.07343733 -0.062490977 -0.028723681 -0.08519354 -0.0864608 0.08527434 0.089885645 0.0367498
0.031685382 -0.0012482 0.09060341 0.02153388 -0.020431433 -0.091174535 -0.01726531 0.007059738
-0.00035625562 -0.0030553676 -0.066183314 -0.017923646 -0.09452591 0.084134296 -0.05816879 -0.047825456
-0.04780581 -0.019423435 0.064956225 0.05534059 -0.074347675 0.04535023 0.068862185 0.0016379273
0.068864726 -0.06236217 0.038086113 0.055334557 -0.0190371 -0.0730864 0.039955765 -0.0817664
-0.017335711 -0.06874504 0.0012357661 0.05148328 0.07898885 0.037561126 0.05722195 -0.0046391035
-0.044176195 0.014947347 0.02533071 0.09615383 0.08808816 -0.012628032 0.054722767 0.076699086
0.06520926 -0.0106802955 -0.020085072 -0.025260366 0.073943496 -0.013473694 -0.07718962 -0.031199446
-0.088464186 -0.07523874 -0.013874929 -0.05012749 -0.0075497264 -0.006679592 -0.02572981 0.05836741
0.051742554 0.005777743 0.021113073 -0.036497526 -0.013201082 -0.01581083 0.035794802 0.02203578
-0.031690344 0.058485113 0.046160284 0.014879524 -0.055587545 -0.015432059 0.07488918 -0.028471863
0.07617583 -0.051187653 -0.06652901 -0.09081507 0.059090067 0.037897844 -0.025435807 0.010407595
-0.07117076 -0.051189147 0.034586914 -0.084252745 -0.03903672 -0.036570583 0.0867523 -0.055353392
0.0082484465 0.027641082 0.027110698 0.002313572 0.07570901 -0.03655092 0.08791973 0.064594746
0.09227903 -0.081892 0.03049187 -0.05627288 0.031782225 0.0032533912 0.018527733 0.0038126784
-0.007869324 0.0344518 0.10614152 -0.026979221 -0.015035112 -0.058819525 0.10155733 0.0519302
-0.0016334463 0.05231752 -0.07462566 -0.033876464 0.075908415 -0.05880844 -0.02856435 0.08478624
0.0328548 0.048490524 -0.05583794 0.034343444 -0.061564606 0.020099964 -0.0272976 0.027080335
0.05575454 0.013737698 0.047877997 -0.028772919 0.030689226 -0.044830095 0.057763286 0.010725147
-0.060435798 0.1284011 0.0072357296 -0.06319406 0.046248063 0.11133049 -0.04394157 -0.04984191
0.037321743 -0.03477865 -0.004528548 0.08754614 0.019477053 -0.065033935 -0.037945863 -0.0726408
-0.01894302 -0.055443645 -0.0105171865 -0.08223459 0.097818546 -0.009974874 0.08886324 0.015184456
0.003674296 -0.022007681 0.06949217 -0.05138814 0.0651202 0.019920312 -0.0030790078 0.025184108
-0.08229007 0.019952865 -0.011076964 0.07907118 0.08044096 -0.07943074 -0.07344106 -0.041638937
0.00863408 -0.082175985 0.061567284 0.019735303 0.04006915 -0.058374345 0.08792866 -0.008739569
-0.05056549 0.019306434 -0.042511255 0.050683554 0.07378664 -0.022124337 -0.017444422 0.09864958
-0.16885 0.09496605 0.007957374 -0.07423757 0.11387975 -0.016009772 -0.019701676 -0.067553125
0.077799544 -0.07510602 0.07622423 0.026249465 0.09107095 0.066066794 0.116336934 0.093319066
0.043973304 -0.017887333 0.034727152 -0.023660699 0.028169831 -0.07820199 0.06611854 0.08132158
-0.096728414 0.02345669 0.09490658 0.04800233 0.035099853 0.09830048 -0.08501278 -0.009591093
00000000: aaf0 b6b8 43bb a03d 011f d8ba 0242 c63a
00000010: 0b8c 9bbd 41f3 143d ccf2 773d 3a66 b73d
00000020: 5a64 c7b9 632b af3b 2625 3d3d 2e9c b53c
00000030: 3844 01bd 5ef0 9a3d f84e 6ebd e549 093c
00000040: 5066 96bd 8af6 7fbd ed4d ebbc f379 aebd
00000050: 5c12 b1bd 50a4 ae3d f715 b83d f586 163d
00000060: 88c8 013d a49a a3ba 488e b93d d267 b03c
00000070: d25f a7bc b7b9 babd fb6f 8dbc 6055 e73b
00000080: d2c7 bab9 903c 48bb 1e8b 87bd 9cd4 92bc
00000090: cd96 c1bd 9a4e ac3d 6642 6ebd a0e4 43bd
000000a0: 06d0 43bd e51d 9fbc c507 853d d1ac 623d
000000b0: 9843 98bd 2ac1 393d 9e07 8d3d b8af d63a
000000c0: f308 8d3d 7a6f 7fbd 2f00 1c3d 7da6 623d
000000d0: b1f3 9bbc 53ae 95bd a8a8 233d 2475 a7bd
000000e0: 9f03 8ebc 33ca 8cbd 6ef9 a13a 22e0 523d
000000f0: e8c4 a13d b2d9 193d 9061 6a3d 9f03 98bb
00000100: 19f2 34bd b8e5 743c 5982 cf3c 4dec c43d
00000110: 9167 b43d cee5 4ebc fb24 603d 6914 9d3d
00000120: 6f8c 853d 68fc 2ebc 7389 a4bc d4ee cebc
00000130: b06f 973d c5c0 5cbc 9715 9ebd fb95 ffbc
00000140: b62c b5bd c516 9abd ac53 63bc 7c52 4dbd
00000150: b263 f7bb 7be0 dabb 53c7 d2bc aa12 6f3d
00000160: 00f0 533d 3953 bd3b 53f5 ac3c 6e7e 15bd
00000170: 5a49 58bc b785 81bc 929d 123d 6184 b43c
00000180: bccd 01bd 168e 6f3d 9112 3d3d 3fc9 733c
00000190: c4af 63bd bfd6 7cbc 805f 993d d33d e9bc
000001a0: 1302 9c3d 25aa 51bd 5d40 88bd 40fd b9bd
000001b0: 6d08 723d c53a 1b3d c15e d0bc 9e84 2a3c
000001c0: fac1 91bd b6ab 51bd 02ab 0d3d b48c acbd
000001d0: f8e4 1fbd 09cb 15bd 31ab b13d 3dba 62bd
000001e0: 7e24 073c 8d6f e23c 4117 de3c 4c9f 173b
000001f0: 530d 9b3d 6bb6 15bd 420f b43d 404a 843d
00000200: cafc bc3d feb6 a7bd 16ca f93c 647e 66bd
00000210: 142e 023d d936 553b 79c7 973c 21de 793b
00000220: 56ee 00bc 551d 0d3d ba60 d93d 8703 ddbc
00000230: d555 76bc beec 70bd 4afd cf3d c3b4 543d
00000240: 5d19 d6ba e54a 563d 57d5 98bd 0cc2 0abd
00000250: df75 9b3d 1ee1 70bd c9ff e9bc 68a4 ad3d
00000260: c192 063d 009e 463d 53b6 64bd b6ab 0c3d
00000270: 2b2b 7cbd aea8 a43c 379f dfbc 94d7 dd3c
00000280: df5e 643d 1514 613c b81b 443d 2fb5 ebbc
00000290: f967 fb3c c39f 37bd 3299 6c3d 87b8 2f3c
000002a0: 878b 77bd 947b 033e b319 ed3b e36b 81bd
000002b0: 9c6e 3d3d 3d01 e43d 13fc 33bd 0827 4cbd
000002c0: afde 183d 0f74 0ebd 3764 94bb 644b b33d
000002d0: 578e 9f3c 8330 85bd 1f6d 1bbd b3c4 94bd
000002e0: 642e 9bbc e018 63bd 4750 2cbc 9c6a a8bd
000002f0: 1755 c83d a76d 23bc eefd b53d 39c8 783c
00000300: 75cc 703b 7449 b4bc e951 8e3d 5f7c 52bd
00000310: bd5d 853d ec2f a33c 2ec9 49bb e74e ce3c
00000320: b287 a8bd 3174 a33c 287c 35bc 12f0 a13d
00000330: 3bbe a43d 95ac a2bd 4468 96bd 978d 2abd
00000340: f575 0d3c e24b a8bd fa2d 7c3d eeab a13c
00000350: 8d1f 243d f019 6fbd f113 b43d 6930 0fbc
00000360: c21d 4fbd 8728 9e3c 4820 2ebd 8f99 4f3d
00000370: 731d 973d 193e b5bc 9be7 8ebc ca08 ca3d
00000380: 04e7 2cbe 8f7d c23d a55f 023c de09 98bd
00000390: c939 e93d ed26 83bc 6965 a1bc 4b59 8abd
000003a0: 5e55 9f3d 2fd1 99bd 731b 9c3d 1e09 d73c
000003b0: 6883 ba3d 074e 873d 0f42 ee3d 111e bf3d
000003c0: 5a1d 343d 7588 92bc 0f3e 0e3d 15d4 c1bc
000003d0: 6bc4 e63c 5d28 a0bd 2869 873d ee8b a63d
000003e0: 8c19 c6bd 3f28 c03c 625e c23d 179e 443d
000003f0: ddc4 0f3d c351 c93d 2e1b aebd f623 1dbc

actionNet.4.bias f4 [128]
-0.052189507 0.0487418 -0.0399954 -0.055134594 -0.07286899 -0.020968804 -0.016377352 -0.02123755
0.07435792 0.10129655 0.020598017 -0.044629082 0.03427485 0.06615446 0.040361363 -0.010155929
0.07068714 -0.0405239 0.04033119 0.060521778 0.07799025 -0.067899734 0.09645456 0.07944647
-0.041789416 -0.062482353 0.042290155 -0.07511327 0.07560868 -0.030744536 0.087676786 -0.0045133885
0.021101965 -0.0490303 0.025815485 0.036071632 -0.0057396553 0.09404678 0.06228534 0.03182327
0.04415329 0.040106226 -0.05941966 0.0829719 -0.02892203 0.10765436 -0.017675266 0.054945104
0.05339399 0.057435695 0.0041097826 -0.0688538 0.059156816 0.026599327 -0.0016320299 0.082634896
0.045318965 -0.06658323 0.106442854 0.04296064 -0.007986495 0.10423783 -0.0037711863 -0.026949052
0.051926676 0.04158698 0.028654233 -0.0038212077 -0.016585393 -0.0007955193 0.060267 0.004352716
-0.029624723 0.04266495 0.071361296 0.09391182 -0.048639335 -0.0044839573 0.08259442 0.10099359
-0.0331587 -0.067290224 0.094901845 0.08116875 -0.046311468 0.075267866 -0.026440993 0.074664176
0.027789487 -0.03365897 -0.057706926 0.014190165 -0.08058527 0.061985377 -0.073388346 -0.044615958
-0.04675783 0.013341704 0.06990019 0.08243261 0.07520554 -0.043008383 -0.016980639 -0.016834477
0.02511534 0.0152637595 0.054934103 -0.02734551 -0.024179071 -0.0058707185 0.047342815 0.021783784
0.027276793 0.02204351 0.119314805 -0.037222028 -0.036902014 0.037978068 -0.06825147 -0.045249037
-0.0014072482 -0.024898095 0.08219195 0.038912926 -0.00341937 -0.042548534 -0.027608171 -0.08539382
00000000: aac4 55bd 7ba5 473d 37d2 23bd d0d4 61bd
00000010: 563c 95bd c5c6 abbc cc29 86bc 5ffa adbc
00000020: f748 983d 9174 cf3d 2cbd a83c fccc 36bd
00000030: c963 0c3d fd7b 873d f551 253d 0e65 26bc
00000040: 6bc4 903d 64fc 25bd 5132 253d afe5 773d
00000050: 5ab9 9f3d 040f 8bbd f889 c53d d5b4 a23d
00000060: 612b 2bbd 7fed 7fbd 7138 2d3d fcd4 99bd
00000070: b9d8 9a3d f7db fbbc e38f b33d 0ce5 93bb
00000080: 07de ac3c ffd3 48bd ff7a d33c d9bf 133d
00000090: b813 bcbb 999b c03d ea1e 7f3d 1e59 023d
000000a0: 15da 343d 6d46 243d 0862 73bd 2ced a93d
000000b0: e5ed ecbc e479 dc3d b8cb 90bc 1e0e 613d
000000c0: a8b3 5a3d b141 6b3d 5bab 863b 3903 8dbd
000000d0: 6b4e 723d d5e6 d93c d6e9 d5ba 7c3c a93d
000000e0: 61a0 393d ca5c 88bd b6fe d93d 7ff7 2f3d
000000f0: cad9 02bc a57a d53d 0226 77bb 42c4 dcbc
00000100: 11b1 543d 1c57 2a3d 48bc ea3c 3a6d 7abb
00000110: 17de 87bc 668a 50ba 88da 763d 3aa1 8e3b
00000120: 8caf f2bc 71c1 2e3d df25 923d d754 c03d
00000130: 0a3a 47bd 29ee 92bb 4327 a93d bad5 ce3d
00000140: 6bd1 07bd 75cf 89bd e65b c23d cd3b a63d
00000150: 18b1 3dbd 0a26 9a3d c89a d8bc 88e9 983d
00000160: c7a6 e33c fddd 09bd 195e 6cbd de7d 683c
00000170: e409 a5bd 61e4 7d3d a14c 96bd 39bf 36bd
00000180: 2385 3fbd 2a97 5a3c d527 8f3d 6ed2 a83d
00000190: 5d05 9a3d 8f29 30bd fb1a 8bbc 75e8 89bc
000001a0: afbe cd3c d914 7a3c 9502 613d b103 e0bc
000001b0: 3013 c6bc 285f c0bb 8aea 413d e873 b23c
000001c0: 9573 df3c 9794 b43c 525b f43d 2076 18bd
000001d0: 9126 17bd e48e 1b3d 6dc7 8bbd 0e57 39bd
000001e0: 6a73 b8ba 17f7 cbbc 4154 a83d 2963 1f3d
000001f0: 8217 60bb 5f47 2ebd 882a e2bc f5e2 aebd

actionNet.6.weight f4 [80, 128]
-0.030820264 -0.13229944 0.06539814 -0.12870893 -0.075063586 -0.0852844 -0.084520176 -0.081454
0.010700718 0.025973273 -0.04248031 -0.12768376 0.060135495 0.04944029 -0.088982016 -0.07513498
0.097748354 0.004603744 -0.0004199781 -0.04496375 -0.03949478 -0.011983267 -0.064743705 -0.021756621
-0.079169065 0.07460288 -0.1260492 -0.034260016 0.069016986 -0.07532511 0.08243304 0.058891118
0.058532152 -0.006869666 -0.057553284 -0.080396436 0.0043776967 -0.08567972 -0.08399407 0.067205876
0.036335137 -0.052234672 -0.047596738 -0.09160374 -0.012800367 -0.048367243 -0.04287362 -0.012269041
0.02291801 0.040716734 -0.028284421 0.015130468 0.03946569 -0.0046491763 -0.069240786 -0.064138114
0.009136961 -0.019821515 -0.0062751276 0.051090468 -0.049503572 0.07079471 -0.01428573 -0.009550425
-0.04888657 0.03905058 0.07417506 -0.024833722 -0.036491577 0.06643876 0.03853436 0.038717575
0.0076404056 -0.046230853 0.009107902 -0.045503236 0.104199015 0.0013076821 0.061935123 0.027484745
0.025713563 -0.04848102 0.023449678 -0.009751502 -0.06317458 0.027980955 -0.10045912 0.045283284
-0.027089871 0.035365526 -0.048782546 -0.07930572 -0.009648699 -0.028914481 -0.0072404384 -0.09914236
0.03332037 0.0250744 0.018811163 0.03530458 -0.03619573 -0.05188336 -0.027663987 -0.09325486
0.049636222 0.058554072 0.003212696 0.0077488073 0.10440478 0.0087248925 -0.069755465 0.043685842
-0.012896438 0.06939849 -0.007649727 -0.07230361 -0.06279543 -0.041078903 -0.08727696 -0.020661809
0.059227504 0.037275434 -0.037825905 -0.08552241 0.061205223 0.006511009 0.039715324 -0.036722876
0.07254512 -0.041044988 0.04853435 -0.047501598 0.09937641 0.094429865 -0.018065039 0.006158374
0.0017532957 0.0101279635 -0.1648065 -0.045020342 -0.038445123 0.042291068 0.013139597 -0.061724477
0.0565524 0.057052188 0.04077856 0.09621527 0.08462706 0.12335673 -0.07184041 -0.09988723
-0.11364531 0.01560279 0.045818277 -0.023583809 0.07949647 -0.015317802 -0.0096623525 0.012541688
-0.0075907707 -0.008822126 0.05600411 -0.021951685 -0.02748933 -0.0034724944 -0.048649255 0.015524142
-0.019400183 -0.0012152481 -0.09260337 -0.019636663 0.028471703 0.0562596 -0.072583005 -0.26086566
-0.029858032 0.056261405 0.036570005 -0.00777376 -0.0155989975 -0.023987567 0.010536751 -0.10148013
0.029007807 -0.12909351 0.0791284 -0.053455483 0.015542717 -0.068226345 -0.065037705 0.043448497
-0.07478861 -0.044537332 -0.05939191 -0.019136583 -0.14865673 0.027491916 0.06075074 0.102755904
0.15088882 -0.022790076 -0.03636231 -0.045261607 0.05549431 0.036965657 0.08407966 -0.13932806
0.041943155 0.14821267 -0.09983659 0.00050425663 -0.022240182 -0.036993597 -0.17396177 0.028318517
0.10963176 -0.011349798 0.010815831 -0.22273858 0.06944662 0.024552325 -0.08388742 -0.049842652
0.087129734 -0.08929823 -0.021536758 -0.014355296 0.14274743 -0.015285682 0.06935396 -0.0013876556
-0.06612585 -0.12035038 0.0037055546 -0.0585087 0.048440035 -0.025019517 0.09691243 -0.09666787
0.010037058 0.038367614 0.075165585 -0.111576855 -0.09770509 0.14992295 0.050689477 -0.09126606
0.024650136 -0.07654305 -0.08245153 8.2206956e-05 -0.07317677 0.113317564 -0.019224485 -0.049792454
00000000: c77a fcbc 8179 07be 76ef 853d 46cc 03be
00000010: f0ba 99bd 96a9 aebd ea18 adbd 5bd1 a6bd
00000020: 1052 2f3c e7c5 d43c d5ff 2dbd 88bf 02be
00000030: a350 763d e781 4a3d 343c b6bd 5ee0 99bd
00000040: 4a30 c83d 01db 963b 8230 dcb9 e92b 38bd
00000050: 47c5 21bd 7755 44bc 5998 84bd f13a b2bc
00000060: 6423 a2bd 65c9 983d 0b13 01be 3b54 0cbd
00000070: c758 8d3d 0d44 9abd a7d2 a83d d037 713d
00000080: 69bf 6f3d ef1a e1bb febc 6bbd e3a6 a4bd
00000090: c872 8f3b d978 afbd 1505 acbd 3ca3 893d
000000a0: 27d4 143d 06f4 55bd ccf4 42bd be9a bbbd
000000b0: a1b8 51bc bb1c 46bd 409c 2fbd 1604 49bc
000000c0: 8dbe bb3c 97c6 263d bbb4 e7bc c8e5 773c
000000d0: c6a6 213d 1e58 98bb 1dce 8dbd d85a 83bd
000000e0: 31b3 153c bb60 a2bc 969f cdbb 3d44 513d
000000f0: 42c4 4abd d1fc 903d b20e 6abc 6379 1cbc
00000100: 493d 48bd 80f3 1f3d 18e9 973d 1770 cbbc
00000110: 3178 15bd 0b11 883d 34d6 1d3d 5296 1e3d
00000120: 5e5c fa3b 905c 3dbd 4f39 153c 9a61 3abd
00000130: 4b66 d53d 8866 ab3a afaf 7d3d b027 e13c
00000140: 40a5 d23c 0994 46bd 8a19 c03c c4c4 1fbc
00000150: ad61 81bd 5138 e53c 83bd cdbd f77a 393d
00000160: 94eb ddbc 71db 103d 35d0 47bd 0a6b a2bd
00000170: 9415 1ebc 10de ecbc 3341 edbb 260b cbbd
00000180: f17a 083d d468 cd3c de19 9a3c 899b 103d
00000190: f941 14bd a583 54bd 969f e2bc 67fc bebd
000001a0: 5a4f 4b3d 65d6 6f3d 188c 523b b5e9 fd3b
000001b0: 2cd2 d53d daf2 0e3c f4db 8ebd edef 323d
000001c0: 954b 53bc cc20 8e3d 90aa fabb ea13 94bd
000001d0: e49a 80bd 5a42 28bd 43be b2bd f442 a9bc
000001e0: 8a98 723d 20ae 183d 56ef 1abd 6026 afbd
000001f0: 54b2 7a3d 4d5a d53b 89ac 223d ba6a 16bd
00000200: 8992 943d ca1e 28bd f4cb 463d 0991 42bd
00000210: dc85 cb3d 7264 c13d 22fd 93bc 2fcc c93b
00000220: d7ce e53a c2ef 253c 09c3 28be 4067 38bd
00000230: a278 1dbd 6639 2d3d 7747 573c ced2 7cbd
00000240: 7da3 673d 8eaf 693d 6b07 273d 830c c53d
00000250: f450 ad3d 74a2 fc3d 1121 93bd ad91 ccbd
00000260: dfbe e8bd d8a2 7f3c f2ab 3b3d d532 c1bc
00000270: 0ccf a23d 85f7 7abc d84e 1ebc a77b 4d3c
00000280: 00bc f8bb ae8a 10bc 9164 653d 05d4 b3bc
00000290: 4e31 e1bc ca92 63bb 7144 47bd f958 7e3c
000002a0: 22ed 9ebc f648 9fba d6a6 bdbd 11dd a0bc
000002b0: 7d3d e93c 7770 663d 66a6 94bd 2f90 85be
000002c0: d598 f4bc 5c72 663d 6eca 153d 06bb febb
000002d0: f092 7fbc 9381 c4bc 56a2 2c3c d0d4 cfbd
000002e0: c8a1 ed3c 1731 04be 120e a23d 23f4 5abd
000002f0: e1a6 7e3c 41ba 8bbd 7d32 85bd 0df7 313d
00000300: c52a 99bd c76c 36bd ee44 73bd 53c4 9cbc
00000310: 7839 18be ba36 e13c c5d5 783d b071 d23d
00000320: 9982 1a3e 41b2 babc a5f0 14bd 3c64 39bd
00000330: 004e 633d 4d69 173d f531 ac3d 04ac 0ebe
00000340: 96cc 2b3d 10c5 173e 2077 ccbd 1730 043a
00000350: 0b31 b6bc 9986 17bd 0923 32be 3cfc e73c
00000360: 9e86 e03d 81f4 39bc e234 313c 9515 64be
00000370: 083a 8e3d f521 c93c 2bcd abbd cf27 4cbd
00000380: 1371 b23d fee1 b6bd db6d b0bc 7a32 6bbc
00000390: 622c 123e cc70 7abc 7309 8e3d ffe1 b5ba
000003a0: fd6c 87bd 437a f6bd e4d8 723b d2a6 6fbd
000003b0: 0f69 463d bbf5 ccbc 067a c63d cef9 c5bd
000003c0: 7972 243c 5c27 1d3d 6af0 993d 6882 e4bd
000003d0: 9b19 c8bd 6785 193e c59f 4f3d b3e9 babd
000003e0: 15ef c93c 9ac2 9cbd 59dc a8bd 8666 ac38
000003f0: b4dd 95bd 0a13 e83d ab7c 9dbc 2cf3 4bbd

actionNet.6.bias f4 [80]
0.043388575 -0.07827748 0.1138016 -0.051257912 -0.060751874 -0.052508313 -0.008424235 0.07939166
0.07911591 0.015164577 0.04159195 -0.029733129 0.033769105 -0.079750836 0.003942249 0.0676158
0.0870384 -0.011433866 0.016620805 0.09062204 0.10278814 0.06317626 -0.0094186105 -0.007184752
-0.03894516 0.09240463 -0.044463474 0.052490424 -0.017107889 0.07633371 -0.017699815 0.007821725
0.00020955071 0.080459595 0.1222412 -0.004671653 -0.04100064 -0.05960798 -0.00054641755 -0.039400544
-0.040188964 -0.0760126 0.07325322 -0.05352364 -0.0030981686 0.10326536 0.035885174 0.019035902
0.03137989 -0.061385 -0.06433147 -0.064704 0.037479185 0.09677039 -0.03863754 -0.040843632
-0.026597757 0.024658745 0.005754108 -0.0522795 0.084011994 -0.0018401811 -0.0729814 -0.028464377
-0.07697421 -0.01620843 -0.019877486 0.07721178 0.026126487 0.0041391365 0.056791317 -0.0286509
0.058245424 -0.042113308 0.05868589 0.003302765 0.097488455 0.0834997 0.08233922 0.060582295
00000000: 38b8 313d f24f a0bd d010 e93d d1f3 51bd
00000010: f5d6 78bd f512 57bd cd05 0abc 1898 a23d
00000020: 8607 a23d d974 783c 525c 2a3d e492 f3bc
00000030: 7951 0a3d 6854 a3bd fb2d 813b 277a 8a3d
00000040: 3041 b23d 1c55 3bbc 5b28 883c 0c98 b93d
00000050: 9782 d23d 8e62 813d 8450 1abc 116e ebbb
00000060: f684 1fbd a33e bd3d 551f 36bd 3300 573d
00000070: d825 8cbc d954 9c3d 34ff 90bc b126 003c
00000080: d7ba 5b39 00c8 a43d 9859 fa3d aa14 99bb
00000090: 49f0 27bd 7f27 74bd 763d 0fba 7762 21bd
000000a0: 2f9d 24bd 7eac 9bbd c905 963d 9b3b 5bbd
000000b0: a50a 4bbb ca7c d33d 55fc 123d 2ef1 9b3c
000000c0: 3388 003d d66e 7bbd 38c0 83bd 8883 84bd
000000d0: c683 193d 8e2f c63d 6642 1ebd a74b 27bd
000000e0: 8ae3 d9bc 2301 ca3c f58c bc3b 0723 56bd
000000f0: 7b0e ac3d 3b32 f1ba 4677 95bd 202e e9bc
00000100: a8a4 9dbd 8bc7 84bc 1cd6 a2bc 3621 9e3d
00000110: 3707 d63c 98a1 873b 039e 683d 4bb5 eabc
00000120: c192 6e3d 017f 2cbd 9e60 703d 3473 583b
00000130: 07a8 c73d e401 ab3d 77a1 a83d 2425 783d
