config/saves/training_weights/simple_spread/ddpg_weights/actorWeights.pth (torch, 656124 bytes, 8 tensors)

actionNet.0.weight f4 [256, 403]
0.0076124095 -0.035276763 0.010515854 0.011729074 0.006670038 -0.019492276 -0.008535043 0.021487221
-0.047704972 -0.050190758 -0.030553909 -0.03924127 0.01977474 0.03545471 -0.022339582 0.046126552
0.019901238 0.011378475 0.020367285 0.050188612 -0.013298563 -0.040876474 -0.027730323 0.037933446
-0.003464638 0.03196157 -0.0357411 -0.0347352 -0.015944146 -0.018218176 -0.009083228 -0.017544195
0.047603 -0.004065862 -0.037897993 0.03294353 -0.012332094 0.0171532 0.03939149 0.030597877
-0.045145348 -0.026381332 -0.03585616 0.016178075 0.050716337 0.009984251 0.005484958 -0.01595885
0.04128032 -0.014581932 -0.032589685 -0.015868735 0.021177765 -0.027809419 0.015287167 -0.01045629
0.012218023 -0.00031325562 0.03075633 -0.016797692 0.038034923 0.046989862 -0.014467122 0.044359025
-0.03882415 -0.044523142 -0.007317498 -0.016479716 -0.03928369 -0.01914532 0.037965257 0.016317284
-0.0022940065 -0.022211695 -0.04909425 0.035006303 0.013026494 -0.04927099 0.029164352 0.04329079
-0.035184268 0.056582917 0.034213234 -0.0013343438 -0.0044616167 -0.007360358 0.016205156 -0.015608602
-0.052828755 -0.0054302923 -0.007425376 -0.0066342605 -0.04775958 0.016786586 0.042330354 0.025767595
-0.011812103 -0.039464552 0.008855413 0.040515848 0.022241311 0.038934443 0.005461266 0.015231482
0.037354335 0.029060142 0.0012145333 -0.043146912 0.02406322 -0.0014449365 0.04071051 -0.0071125757
-0.0045603574 0.0049117375 -0.018338088 0.024117308 -0.018325174 0.0051173107 0.035526175 -0.046248
0.00675465 -0.032492924 0.0031910955 -0.040137023 -0.056524623 0.014220193 0.03638504 0.0036676268
-0.025794307 0.033227116 -0.05332344 0.026140809 0.021290706 -0.044759966 -0.04643972 0.041153144
-0.0073826695 0.03473449 -0.013563706 0.03554313 0.017775944 0.011864545 0.021174181 -0.042194523
-0.0106128575 -0.0038184116 -0.044112243 0.030399328 0.030313767 -0.009920049 0.016142529 0.0016307893
0.041269496 -0.028541174 0.011662796 0.024798661 0.017780311 -0.04248488 0.04135139 -0.046309892
0.025947338 -0.0070348172 -0.014320043 -0.027368948 -0.024730321 -0.038879793 0.02326502 0.03827583
-0.0236236 0.008964934 0.013807315 0.008582657 0.0067286766 0.012452019 -0.031744882 0.035944577
-0.017887324 0.0074773952 -0.0027144004 -0.009907414 0.029201468 0.029920394 -0.04406639 0.010548828
-0.004741601 -0.026791386 -0.04428336 -0.018932408 -0.045739546 -0.025209503 -0.0022355213 -0.014307814
0.026232107 0.031920116 0.015520799 0.030694447 -0.045563594 0.007644899 -0.033811178 -0.010728122
-0.013899762 0.0308418 0.03268835 0.019269798 0.02664548 0.003926376 -0.021398135 -0.02399505
-0.0473719 0.029742476 0.012802397 -0.0108536435 -0.028973324 -0.016196895 -0.023652429 0.016125109
-0.0038765734 -0.0047436557 0.039729636 -0.03854113 0.021853464 0.006588831 -0.03565766 0.041091952
-0.006036488 -0.033179957 -0.016697912 0.011159843 0.03116471 -0.038754463 -0.0047061685 0.029998682
0.037988637 0.033864453 0.0015371798 0.03046969 0.012430739 0.044838093 0.045274604 -0.043303687
-0.0016482439 0.006049336 -0.016349776 0.05329614 0.00827455 0.039121352 0.029584996 0.036837734
0.040372573 0.0034275176 -0.0068709007 0.021982493 -0.004120885 0.04948161 0.00042821365 0.008981633
00000000: 8571 f93b 5e7e 10bd b04a 2c3c 4d2b 403c
00000010: 5690 da3b 44ae 9fbc 91d6 0bbc f805 b03c
00000020: 4a66 43bd d394 4dbd 314c fabc 74bb 20bd
00000030: a3fe a13c f538 113d 8001 b7bc 32ef 3c3d
00000040: ec07 a33c c96c 3a3c 4bd9 a63c 9392 4d3d
00000050: 37e2 59bc 176e 27bd b42a e3bc 1a60 1b3d
00000060: fb0e 63bb 23ea 023d 4265 12bd 7f46 0ebd
00000070: 4c9d 82bc 493e 95bc d2d1 14bc d8b8 8fbc
00000080: 5dfb 423d ec3a 85bb ed3a 1bbd cbef 063d
00000090: 8d0c 4abc de84 8c3c f958 213d 66a8 fa3c
000000a0: 54ea 38bd aa1d d8bc e9dd 12bd e287 843c
000000b0: efbb 4f3d fc94 233c 2abb b33b 22bc 82bc
000000c0: 8e15 293d 0ee9 6ebc c37c 05bd 26ff 81bc
000000d0: fe7c ad3c 94d0 e3bc 0777 7a3c dc50 2bbc
000000e0: 1a2e 483c 753c a4b9 b3f4 fb3c 509b 89bc
000000f0: 82ca 1b3d 7178 403d 8207 6dbc cfb1 353d
00000100: 1206 1fbd e65d 36bd 9fc7 efbb 7800 87bc
00000110: efe7 20bd a5d6 9cbc 7581 1b3d d3ab 853c
00000120: 0b57 16bb 4df5 b5bc 0d17 49bd c562 0f3d
00000130: 136d 553c 61d0 49bd 14ea ee3c af51 313d
00000140: 611d 10bd 7dc3 673d 2d23 0c3d 26e5 aeba
00000150: c132 92bb 282f f1bb adc0 843c 39bb 7fbc
00000160: f762 58bd 98f0 b1bb 9250 f3bb 3664 d9bb
00000170: 8d9f 43bd 0684 893c 9862 2d3d 9016 d33c
00000180: 8d87 41bc 95a5 21bd 4b16 113c f2f3 253d
00000190: 6933 b63c b979 1f3d 6bf4 b23b 778d 793c
000001a0: dc00 193d 890f ee3c fa30 9f3a d1ba 30bd
000001b0: 3b20 c53c 0664 bdba 10c0 263d 9c10 e9bb
000001c0: 0d6f 95bb a4f2 a03b c239 96bc a991 c53c
000001d0: ad1e 96bc 1daf a73b e583 113d 8b6e 3dbd
000001e0: 1c56 dd3b 4d17 05bd b321 513b b866 24bd
000001f0: 5d86 67bd d0fb 683c 7b08 153d 915c 703b
00000200: 954e d3bc 2819 083d ae69 5abd 4025 d63c
00000210: d969 ae3c 3a56 37bd 9337 3ebd 3390 283d
00000220: 52ea f1bb c145 0e3d 4e3a 5ebc ac95 113d
00000230: db9e 913c 8263 423c 7a75 ad3c 2ad4 2cbd
00000240: 8de1 2dbc 513e 7abb 0aaf 34bd 0308 f93c
00000250: 9454 f83c b487 22bc 563d 843c 35c0 d53a
00000260: 340a 293d 2ecf e9bc 5015 3f3c 9026 cb3c
00000270: 04a8 913c a004 2ebd 1360 293d 71af 3dbd
00000280: 838f d43c 5384 e6bb 9d9e 6abc d834 e0bc
00000290: 3e97 cabc 6b40 1fbd 4996 be3c 1ec7 1c3d
000002a0: 4886 c1bc a9e1 123c 1438 623c 469e 0c3c
000002b0: 3b7c dc3b 8e03 4c3c ec06 02bd 9f3a 133d
000002c0: 7088 92bc f004 f53b 15e4 31bb b552 22bc
000002d0: eb37 ef3c 9d1b f53c f57e 34bd fed4 2c3c
000002e0: 6f5f 9bbb 9c79 dbbc 7862 35bd 2318 9bbc
000002f0: 6459 3bbd 2984 cebc d381 12bb 526b 6abc
00000300: b7e4 d63c abbe 023d f34a 7e3c ec72 fb3c
00000310: e4a0 3abd 1082 fa3b 977d 0abd 01c5 2fbc
00000320: d4bb 63bc f1a7 fc3c 38e4 053d b2db 9d3c
00000330: 9f47 da3c d4a8 803b 244b afbc 4491 c4bc
00000340: 0a09 42bd 7ea6 f33c 25c1 513c 7bd3 31bc
00000350: 7759 edbc 5aaf 84bc bdc2 c1bc ce18 843c
00000360: 1c0e 7ebb ab70 9bbb 8bbb 223d 4edd 1dbd
00000370: 0906 b33c 1fe7 d73b c40d 12bd 0950 283d
00000380: bbcd c5bb b5e7 07bd 0fca 88bc c6d7 363c
00000390: 224d ff3c 00bd 1ebd 3436 9abb ccbf f53c
000003a0: f999 1b3d 74b5 0a3d 327b c93a 929b f93c
000003b0: 4caa 4b3c 26a8 373d dd71 393d 355f 31bd
000003c0: e309 d8ba 8239 c63b f7ef 85bc 0e4d 5a3d
000003d0: fa91 073c b63d 203d 3c5c f23c 2ae3 163d
000003e0: b65d 253d 34a0 603b 4b25 e1bb a114 b43c
000003f0: 7d08 87bb 3bad 4a3d dd81 e039 b327 133c

actionNet.0.bias f4 [256]
-0.031579413 0.024616268 -0.04564004 -0.021130735 -0.020200338 0.024918426 0.03554784 -0.021163844
-0.005878645 -0.12390024 0.063390195 -0.09971078 -0.04636791 0.017306628 0.027141495 0.069823265
0.041775785 -0.03379403 -0.03739794 -0.0050150286 0.00403354 -0.054620236 -0.05260746 -0.015541075
-0.08585219 0.08423865 -0.008116367 -0.06906678 -0.049623918 -0.070661075 -0.023340836 0.007144855
0.009100354 -0.008106738 -0.026529819 0.03711491 -0.14869599 -0.028081229 0.11964263 -0.075305276
-0.07570869 0.026353262 -0.08414869 -0.015392189 -0.048363335 0.011932645 -0.03433898 -0.026298719
-0.018398007 -0.008170416 -0.0523509 -0.026487214 -0.05278639 0.06775612 0.005507605 0.02049358
-0.0027505178 0.04621343 -0.055161044 0.030180916 0.038686253 0.056376006 -0.016472565 -0.034340516
-0.015222393 -0.025863394 -0.025363965 -0.03544483 -0.04825718 -0.036489718 -0.07380512 0.029402116
0.0061953217 -0.06922885 -0.0063836193 -0.016071033 -0.033501156 -0.09464613 0.03133526 -0.07031396
9.15906e-05 -0.07251708 -0.018765826 -0.043537095 -0.0659596 0.07571123 0.02536822 -0.0076614735
0.08301994 0.002754846 -0.03125659 -0.03841952 0.0750472 -0.022996876 -0.023600008 0.01874783
0.0042018476 -0.12058962 0.047007855 -0.023670314 -0.13305458 0.010639623 -0.100790106 -0.038147986
-0.06301852 -0.017812915 -0.045051184 0.012705979 -0.02957753 0.0015465746 0.043423586 0.019294016
-0.07900354 -0.016929103 -0.05350182 0.020187542 0.022374636 -0.041750044 0.0010229606 -0.0554118
0.038722984 9.2955845e-05 0.057730958 0.03588913 0.0201865 0.011222642 0.043092754 -0.040583804
0.03561321 -0.0022810064 0.0038104672 -0.06871009 -0.0022547864 -0.012102842 -0.013989189 -0.0076711075
-0.023799788 0.010397405 -0.109551705 -0.076867424 0.0053861584 -0.012339412 -0.06815249 0.047008727
0.024221653 0.04025873 -0.018708622 -0.055881094 -0.060536295 0.023401696 -0.036022067 0.06689962
-0.06467379 -0.06404157 0.07125586 0.08929759 -0.014889218 -0.08283837 0.009560321 -0.056094598
-0.095610626 0.01626143 -0.018694958 -0.00020598988 0.046876196 -0.02331161 -0.025300404 -0.062153865
0.02253837 0.0050801393 0.034634583 0.007977488 -0.03550807 0.008987604 -0.046030466 -0.037380856
0.02477441 -0.005947343 -0.11311352 -0.052135557 0.054811 -0.022125829 -0.0025751442 -0.039617054
0.06280795 -0.010623117 -0.04633703 -0.012003272 -0.0485582 0.03788192 0.027947033 -0.028429942
-0.1221108 -0.028288424 -0.039297163 0.03495964 -0.01311233 0.026920894 0.0099005615 -0.031746283
-0.07608774 0.019033361 -0.020611532 -0.004668041 0.017047426 -0.0063341246 0.02282255 0.016080715
0.00626036 -0.03857301 0.008743919 -0.012492625 0.046532657 -0.028871285 0.036429506 0.022047965
0.02546 0.099108405 -0.037979342 0.0010041263 -0.003854666 -0.036922846 0.052762523 -0.15181033
-0.05124985 -0.007860972 -0.038381066 0.032335415 0.0056584827 -0.05303778 -0.039768588 0.01751437
-0.040560033 -0.13232124 -0.03894441 0.011732933 0.013398755 0.021088727 0.104495846 -0.020409523
-0.017196102 0.032578364 0.033786573 -0.022349136 -0.027926615 0.022768915 0.041488018 0.123472065
-0.038804673 0.1036766 0.04381183 -0.063184194 0.051267903 0.008191082 0.010246122 0.34379256
00000000: 6a59 01bd 0ea8 c93c 0df1 3abd 5d1a adbc
00000010: 2e7b a5bc ba21 cc3c 9d9a 113d cc5f adbc
00000020: a6a1 c0bb 69bf fdbd b8d2 813d 2a35 ccbd
00000030: 47ec 3dbd a1c6 8d3c d757 de3c 80ff 8e3d
00000040: 161d 2b3d 9c6b 0abd 952e 19bd 1c55 a4bb
00000050: c92b 843b 78b9 5fbd ec7a 57bd fe9f 7ebc
00000060: 46d3 afbd 5085 ac3d 83fa 04bc e272 8dbd
00000070: 7342 4bbd c1b6 90bd 4835 bfbc 631f ea3b
00000080: a719 153c 20d2 04bc 1055 d9bc ce05 183d
00000090: c343 18be 9b0a e6bc 3207 f53d a739 9abd
000000a0: 280d 9bbd cce2 d73c 2656 acbd 852f 7cbc
000000b0: a218 46bd 2481 433c 08a7 0cbd 6970 d7bc
000000c0: 6bb7 96bc 35dd 05bc e66d 56bd b7fb d8bc
000000d0: 8b36 58bd b8c3 8a3d 2479 b43b 27e2 a73c
000000e0: 0842 34bb 4b4a 3d3d 8cf0 61bd f83d f73c
000000f0: 7a75 1e3d 87ea 663d 79f1 86bc a4a8 0cbd
00000100: 5867 79bc 78df d3bc 17c8 cfbc 992e 11bd
00000110: 52a9 45bd 3e76 15bd 2427 97bd b5dc f03c
00000120: 2002 cb3b dbc7 8dbd ae2d d1bb 66a7 83bc
00000130: 8238 09bd d5d5 c1bd 6759 003d c400 90bd
00000140: 5414 c038 d683 94bd caba 99bc f453 32bd
00000150: d415 87bd 7d0e 9b3d 03d1 cf3c 190d fbbb
00000160: 5c06 aa3d a58a 343b e906 00bd c95d 1dbd
00000170: 59b2 993d f263 bcbc ce54 c1bc 0d95 993c
00000180: a7af 893b b1f7 f6bd 4f8b 403d 3fe8 c1bc
00000190: 763f 08be d051 2e3c 0b6b cebd 1041 1cbd
000001a0: db0f 81bd 64ec 91bc 9787 38bd bd2c 503c
000001b0: 944c f2bc 6fb6 ca3a eedc 313d 7c0e 9e3c
000001c0: 9ccc a1bd e7ae 8abc b924 5bbd 5860 a53c
000001d0: 034b b73c 1802 2bbd dd14 863a 7cf7 62bd
000001e0: fe9b 1e3d 4af1 c238 4c77 6c3d 7b00 133d
000001f0: 295e a53c 2cdf 373c 0782 303d 343b 26bd
00000200: 28df 113d f07c 15bb 08b9 793b e0b7 8cbd
00000210: 0ac5 13bb 004b 46bc e932 65bc ea5d fbbb
00000220: c6f7 c2bc e159 2a3c a55c e0bd ab6c 9dbd
00000230: 5f7e b03b 3f2b 4abc 8893 8bbd 398c 403d
00000240: 7d6c c63c 57e6 243d d342 99bc 93e3 64bd
00000250: e8f4 77bd eab4 bf3c e08b 13bd ab02 893d
00000260: b173 84bd 3a28 83bd 98ee 913d a8e1 b63d
00000270: e8f1 73bc 2aa7 a9bd e5a2 1c3c 73c3 65bd
00000280: 81cf c3bd b136 853c 2b26 99bc fdfe 57b9
00000290: 4101 403d fdf7 bebc cb42 cfbc 0d95 7ebd
000002a0: 63a2 b83c 4c77 a63b fedc 0d3d 03b4 023c
000002b0: e970 11bd be40 133c 718a 3cbd ab1c 19bd
000002c0: b4f3 ca3c eee1 c2bb 10a8 e7bd 188c 55bd
000002d0: 8081 603d 3a41 b5bc c0c3 28bb 7e45 22bd
000002e0: 74a1 803d 950c 2ebc e6cb 3dbd 5fa9 44bc
000002f0: f7e4 46bd 122a 1b3d 2df1 e43c e9e5 e8bc
00000300: 3a15 fabd 20bd e7bc 10f6 20bd d731 0f3d
00000310: 19d5 56bc 3589 dc3c f735 223c 6408 02bd
00000320: e4d3 9bbd daeb 9b3c 84d9 a8bc 5ef6 98bb
00000330: 0ba7 8b3c 7d8e cfbb 5bf6 ba3c b4bb 833c
00000340: b523 cd3b bcfe 1dbd a842 0f3c dead 4cbc
00000350: 0799 3e3d 7983 ecbc 1b37 153d ef9d b43c
00000360: 7d91 d03c 59f9 ca3d 3a90 1bbd e39c 833a
00000370: 909e 7cbb 693c 17bd 841d 583d 2b74 1bbe
00000380: 5deb 51bd 4ecb 00bc 7735 1dbd 2472 043d
00000390: cb6a b93b 253e 59bd 63e4 22bd 4c7a 8f3c
000003a0: 4722 26bd 387f 07be 2c84 1fbd 7d3b 403c
000003b0: 7486 5b3c 44c2 ac3c eb01 d63d df31 a7bc
000003c0: d7de 8cbc e470 053d ca63 0a3d 8915 b7bc
000003d0: 5bc6 e4bc e085 ba3c 57ef 293d ecde fc3d
000003e0: a6f1 1ebd 6654 d43d 0974 333d b766 81bd
000003f0: 4bfe 513d e333 063c 5adf 273c 9405 b03e

actionNet.2.weight f4 [128, 256]
-0.0106176045 -0.5007085 -0.034320224 -0.19989757 -0.17383876 -0.031995658 0.057578858 0.568431
-0.101946115 0.12775597 -0.08160842 0.08304002 -0.017751874 -0.6185149 0.00053536316 0.15844198
-0.21728793 -0.07352348 -0.35256958 -0.59769225 -0.117321104 0.5988571 0.05313643 -0.1249852
-0.24931245 0.073576964 -0.04991973 0.29800478 -0.04073028 -0.29059315 0.05152314 -0.25976598
-0.2577037 0.01846546 -0.21694614 0.052224778 0.19843413 -0.31505024 -0.11132423 0.19763337
-0.33959734 0.035858896 0.28440902 0.3190209 0.26629728 -0.101743594 -0.22027461 0.3099528
0.49719897 -0.4628512 0.3070173 0.033338238 0.86223674 -0.27499312 -0.03154901 -0.17217202
0.120004825 -0.010447268 -0.8698748 0.19899753 -0.032053523 0.013573136 0.085071996 0.046386365
-0.3587653 0.09542159 0.22406554 -0.3390193 0.042927448 -0.46336225 -0.03174655 -0.11218894
-0.035292998 0.06617112 -0.41299304 0.016511166 0.020136423 0.040971488 -0.08878577 0.37460837
-0.2566124 0.22947891 -0.025605302 -0.60961676 -0.2970579 -0.39856592 0.3152741 0.05173739
0.18233055 0.10901598 0.058199212 0.2905114 -0.09170757 0.1753289 0.031558216 -0.062576
-0.47036707 0.20673198 -0.5317596 0.14064349 -0.06900935 -0.037896 -0.37963483 0.055785183
0.013840717 0.17737755 0.056522816 0.00015336517 -0.3683478 0.41534814 -0.5659249 0.10681435
0.16507562 0.6318793 0.87385094 -0.2960529 -0.056328513 -0.23988692 0.00016614825 0.53005177
0.009601772 -0.008525533 0.5546178 -0.03476957 -0.11927009 -0.4192505 -0.024335874 0.38957462
-0.13350882 -0.021108769 -0.17588057 -0.16549586 -0.040509377 -0.01738756 0.8012382 0.021724997
-0.58036715 0.03645149 0.10596243 0.3051381 0.017658647 -0.12125221 0.16108173 -0.017654495
0.15921533 0.2880316 -0.35585806 -0.038259175 -0.2355283 -0.39355046 -0.02659551 -0.17103021
0.44177106 -0.2831796 -0.18405394 -0.170286 0.4287432 -0.07316725 -0.27017736 0.023463227
-0.12357087 -0.023684636 0.19467808 -0.059982345 -0.23098435 0.0074086706 0.04014543 0.23015125
-0.083083734 -0.55311376 -0.6685836 0.15742993 0.02720184 0.08573474 0.83744866 0.01148868
0.056083977 -0.38978878 0.12761766 -0.0010226064 0.123730145 0.035540145 0.029199947 0.049916536
0.02809616 0.26314345 -0.19389653 0.11893002 -0.67113125 0.06942714 0.07475384 0.025028355
-0.5544414 0.4597758 -0.42553356 0.057905503 -0.05716559 -0.1479946 0.006682731 -0.44220352
0.10547239 -0.31715062 -0.737037 -0.106090434 0.08584239 0.04295378 -0.010972895 -0.6460868
0.32440242 0.30027708 -0.09686234 0.05385504 -0.3373918 -0.44460958 0.24110894 -0.038770203
-0.010654436 -0.608373 -0.030687345 0.32054257 0.3972128 -0.17118552 0.08036105 -0.29574043
0.20081608 -0.5102937 0.17291622 0.07118256 0.025794566 -0.09981791 0.24231689 -0.2504927
0.025063273 0.6811214 0.3731596 0.6976739 -0.45922336 -0.006844938 -0.13368894 -0.2262579
-0.29908913 0.18595016 0.020671621 0.25944132 0.4056339 -0.05598492 -0.663701 0.5047282
-0.52771264 -0.05939972 -0.039740097 0.47457668 -0.29041752 -0.054228455 -0.0235686 -0.06056819
00000000: 76f5 2dbc 6f2e 00bf 5d93 0cbd f3b1 4cbe
00000010: ca02 32be e10d 03bd cfd7 6b3d b284 113f
00000020: 20c9 d0bd 76d2 023e 5122 a7bd e310 aa3d
00000030: 616c 91bc fe56 1ebf 9d57 0c3a 9d3e 223e
00000040: ba80 5ebe 7a93 96bd 0084 b4be 5c02 19bf
00000050: 0c46 f0bd b34e 193f 96a5 593d 3ef8 ffbd
00000060: c34b 7fbe 85af 963d a178 4cbd 1594 983e
00000070: cbd4 26bd a0c8 94be ee09 533d 0c00 85be
00000080: bdf1 83be e044 973c 2127 5ebe a6e9 553d
00000090: 5132 4b3e 444e a1be f5fd e3bd 6760 4a3e
000000a0: b4df adbe c7e0 123d 0f9e 913e b556 a33e
000000b0: 1e58 883e f25e d0bd ab8f 61be 22b2 9e3e
000000c0: dd90 fe3e d5fa ecbe 5f31 9d3e ad8d 083d
000000d0: 8cbb 5c3f e6cb 8cbe 8939 01bd dd4d 30be
000000e0: 17c5 f53d 052b 2bbc 1db0 5ebf 02c6 4b3e
000000f0: 8e4a 03bd dc61 5e3c 3a3a ae3d a1ff 3d3d
00000100: 16b0 b7be 656c c33d 7071 653e f093 adbe
00000110: b1d4 2f3d d13d edbe ac08 02bd 51c3 e5bd
00000120: 648f 10bd b984 873d d373 d3be 6d42 873c
00000130: 24f5 a43c b8d1 273d 50d5 b5bd abcc bf3e
00000140: b362 83be 85fc 6a3e 36c2 d1bc d80f 1cbf
00000150: f917 98be d510 ccbe 9b6b a13e 96ea 533d
00000160: dcb4 3a3e c543 df3d 4c62 6e3d e9bd 943e
00000170: 2ed1 bbbd 6b89 333e 3043 013d d927 80bd
00000180: f4d3 f0be 8cb1 533e 6621 08bf d904 103e
00000190: c654 8dbd d638 1bbd 7f5f c2be 017f 643d
000001a0: 2dc4 623c 76a2 353e 7884 673d a6d0 2039
000001b0: 1598 bcbe 83a8 d43e 74e0 10bf 7bc1 da3d
000001c0: 9509 293e d8c2 213f b2b4 5f3f 3f94 97be
000001d0: bab8 66bd eba4 75be 1538 2e39 79b1 073f
000001e0: c050 1d3c adae 0bbc 6ffb 0d3f 896a 0ebd
000001f0: e043 f4bd 00a8 d6be 075c c7bc 5376 c73e
00000200: 89b6 08be 4cec acbc 091a 34be bf77 29be
00000210: 29ed 25bd 5b70 8ebc f21d 4d3f 9ff8 b13c
00000220: f192 14bf 284e 153d d502 d93d 103b 9c3e
00000230: dea8 903c 1453 f8bd 9cf2 243e 29a0 90bc
00000240: 5809 233e e178 933e 0733 b6be a7b5 1cbd
00000250: 552e 71be 727f c9be d4de d9bc 8b22 2fbe
00000260: d12f e23e ebfc 90be a378 3cbe 745f 2ebe
00000270: 3b84 db3e b6d8 95bd b054 8abe f435 c03c
00000280: b912 fdbd 4806 c2bc b159 473e 0cb0 75bd
00000290: 2987 6cbe 6fc4 f23b 896f 243d c5ac 6b3e
000002a0: ce27 aabd dd98 0dbf 4b28 2bbf 5035 213e
000002b0: 65d6 de3c b295 af3d 0963 563f 043b 3c3c
000002c0: 50b8 653d 6592 c7be 34ae 023e fa08 86ba
000002d0: 3b66 fd3d 8b92 113d ba34 ef3c 4875 4c3d
000002e0: eb29 e63c bdba 863e d08c 46be 9591 f33d
000002f0: 42cf 2bbf d12f 8e3d 8b18 993d 4408 cd3c
00000300: dfef 0dbf bc67 eb3e 89df d9be 522e 6d3d
00000310: 7726 6abd e58b 17be d0fa da3b 8068 e2be
00000320: e901 d83d 9161 a2be 75ae 3cbf f145 d9bd
00000330: 23ce af3d 4ef0 2f3d a8c7 33bc f265 25bf
00000340: 1318 a63e ebbd 993e c35f c6bd 1a97 5c3d
00000350: 9ebe acbe dea3 e3be 43e5 763e 81cd 1ebd
00000360: f28f 2ebc 55be 1bbf 0764 fbbc 281e a43e
00000370: 7a5f cb3e 424b 2fbe 5694 a43d 4a6b 97be
00000380: bba2 4d3e 9ca2 02bf f310 313e 29c8 913d
00000390: 204f d33c 556d ccbd eb21 783e 9440 80be
000003a0: 7e51 cd3c f95d 2e3f c60e bf3e c29a 323f
000003b0: 531f ebbe 804b e0bb c1e5 08be 27b0 67be
000003c0: 3622 99be b869 3e3e 8857 a93c 7ed5 843e
000003d0: 3faf cf3e 7250 65bd 4fe8 29bf de35 013f
000003e0: 2d18 07bf 1f4d 73bd 83c6 22bd b7fb f23e
000003f0: 9bb1 94be a81e 5ebd f012 c1bc 5a16 78bd

actionNet.2.bias f4 [128]
0.037229057 -0.0018999411 -0.08536636 0.13494705 0.022009041 0.031528812 -0.031129224 -0.13920085
-0.011619288 0.0019591635 0.015866676 -0.011096566 0.04697986 0.03152937 -0.08349119 -0.019602451
0.0780487 -0.029509803 0.015729355 -0.061343 -0.013457978 -0.06526275 0.051302247 0.0117003545
-0.020277703 -0.051241543 -0.085556224 0.032558907 -0.08970042 0.014675532 0.01319116 -0.16853073
-0.14110443 0.04348465 -0.2196089 0.11004799 0.069477886 0.036977284 0.019872414 0.08595567
0.026631705 -0.1424931 0.22009297 -0.044491474 0.07522649 0.00029522635 -0.035700016 -0.059658404
-0.025055923 0.049346495 -0.1389753 0.12411756 0.038272046 0.030894637 0.0114220735 0.07367016
-0.1239132 0.011243657 0.15837452 -0.013827246 -0.06558103 0.09949608 -0.06746694 -0.033557393
-0.032317396 -0.13541614 0.026105708 0.013162957 0.009709633 0.107069366 -0.16413791 -0.04156009
-0.07121098 0.017046653 0.09909272 -0.055744562 0.08661847 0.022872096 0.027593086 0.013635045
-0.009699102 0.08908957 0.12857333 0.007924157 -0.4104682 -0.0071899137 0.08001244 -0.10670351
-0.2132322 -0.017904248 0.09879521 -0.0012158147 -0.0003882714 -0.04529058 -0.055474523 -0.1035493
-0.04957261 0.061310686 0.18679608 -0.0074951313 -0.104782514 -0.12737565 0.08014362 -0.05600906
0.03464245 -0.027554577 0.009710792 0.019450057 0.0644779 0.12940401 -0.0845165 -0.029347602
-0.121318094 0.04070748 -0.042176057 -0.08585919 -0.0028691064 0.0245841 -0.0041694376 -0.1441911
-0.19047002 -0.032179642 -0.13029593 -0.18065289 -0.39765954 0.17258553 -0.07700259 -0.102311544
00000000: 7f7d 183d 7207 f9ba 8fd4 aebd 8f2f 0a3e
00000010: 4e4c b43c 5b24 013d b702 ffbc ab8a 0ebe
00000020: d35e 3ebc 4f65 003b d5fa 813c 5fce 35bc
00000030: f46d 403d f124 013d 6efd aabd 5295 a0bc
00000040: ffd7 9f3d 8bbe f1bc d9da 803c cc42 7bbd
00000050: da7e 5cbc 7aa8 85bd 4e22 523d d8b2 3f3c
00000060: 6d1d a6bc a7e2 51bd 1a38 afbd 7d5c 053d
00000070: dbb4 b7bd a471 703c bc1f 583c 5293 2cbe
00000080: ae7d 10be f61c 323d 28e1 60be d760 e13d
00000090: 6c4a 8e3d 7e75 173d 79cb a23c 8709 b03d
000000a0: bc2a da3c b6e9 11be 0d60 613e b13c 36bd
000000b0: 5910 9a3d 9cc8 9a39 2e3a 12bd 5f5c 74bd
000000c0: 1442 cdbc 8d1f 4a3d 8b4f 0ebe 5931 fe3d
000000d0: 26c3 1c3d c016 fd3c a623 3b3c 61e0 963d
000000e0: 34c6 fdbd 5137 383c ee2c 223e ac8b 62bc
000000f0: 594f 86bd 9ac4 cb3d 1b2c 8abd 7a73 09bd
00000100: 3f5f 04bd 87aa 0abe a3db d53c 71a9 573c
00000110: 2715 1f3c 2f47 db3d c513 28be ea3a 2abd
00000120: 10d7 91bd 6ca5 8b3c 20f1 ca3d 6954 64bd
00000130: 0665 b13d 435e bb3c e50a e23c 8665 5f3c
00000140: fbe8 1ebc 9874 b63d baa8 033e 53d4 013c
00000150: e328 d2be 5e99 ebbb 90dd a33d 5f87 dabd
00000160: 8b59 5abe eeab 92bc 2555 ca3d f95b 9fba
00000170: e890 cbb9 9d82 39bd 4139 63bd a811 d4bd
00000180: a60c 4bbd ea20 7b3d 7947 3f3e b899 f5bb
00000190: 3798 d6bd c36e 02be 5722 a43d c269 65bd
000001a0: 3ee5 0d3d 23ba e1bc 041a 1f3c ba55 9f3c
000001b0: fd0c 843d 7c82 043e fd16 adbd 626a f0bc
000001c0: 9f75 f8bd e3bc 263d cdc0 2cbd f1d6 afbd
000001d0: 9e07 3cbb 9864 c93c c79f 88bb d5a6 13be
000001e0: 930a 43be cdce 03bd 4c6c 05be 12fd 38be
000001f0: 089a cbbe 43ba 303e 89b3 9dbd b788 d1bd

actionNet.4.weight f4 [128, 128]
-0.38523817 -0.03541714 0.0143142985 -0.106023476 -0.70131105 0.23227565 -0.18100484 0.021557141
-0.11467014 -0.19878784 -0.09108672 -0.104489766 -0.007355626 0.20276487 0.028801756 0.05465436
0.3814309 0.3176403 -0.22858222 0.2928396 0.18756677 -0.06094876 -0.19673303 0.39152583
0.043317173 0.03787658 0.30989376 0.25187218 -0.75564164 0.15896963 -0.3353933 -0.116787285
0.3856947 0.31187642 0.19465727 0.1343148 0.35757336 -0.070173874 0.298894 -0.40059224
0.07359731 0.15101051 -0.046878584 0.058234144 0.020572491 -0.04728924 -0.61358124 0.3767584
-0.014228843 -0.11833631 0.012444859 -0.18453166 0.10828346 -0.36497226 0.21694149 -0.14171553
0.7081004 0.094563656 -0.025973374 -0.080202304 0.13533951 -0.012335997 0.028343514 0.022971293
0.02517038 0.94348437 -0.16483605 -0.14459793 0.20719267 -0.7685438 0.21521915 -0.15973783
-0.4381596 0.038599323 -0.22977883 0.51285905 0.2023041 0.020342788 -0.070123985 -0.2505707
-0.58917207 -0.06660891 -0.25396284 0.03027857 -0.37265754 0.05444918 -0.7132581 -0.117463015
0.08753542 -0.11881012 -0.09689154 -0.04990536 -0.024071686 0.014310005 0.19139707 -0.029199557
-0.05861427 -0.1596834 -0.763192 0.06816556 -0.100404374 0.23921855 0.16190687 0.10300112
-0.5229838 -0.64892864 -0.12345124 -0.022704374 0.026818056 -0.7282248 0.17463727 0.33827376
0.0341325 -0.38201672 -0.11135268 0.21733636 -0.11351109 -0.5004825 -0.077166125 0.16084982
-0.21850541 -0.67940617 0.016759584 -0.2242533 0.23206076 0.24449313 0.15105313 -0.0031798296
0.38182566 -0.28103557 -0.06137612 -0.42907086 -0.0017570212 -0.06963913 -0.20525475 -0.011419781
-0.023858378 0.069942355 0.57121027 -0.15003791 -0.08133023 0.12783691 -1.2159472 0.041948974
0.07666511 -0.2019239 0.06531641 -0.11763926 -0.45283288 0.025465006 0.20393531 0.002024624
-0.31959283 0.089405924 -0.17087571 -0.30852377 -0.43226197 -0.29369116 -0.5581475 -0.3258575
0.32581344 0.16652398 0.022798622 -0.25321156 0.02809378 0.007424837 0.16956705 -0.45683637
0.33806247 -0.494445 0.10428013 0.05240858 0.23316225 -0.35838822 -0.104851864 0.37158102
-0.033648778 -0.20136964 -0.035007924 -0.0450158 0.19405672 -0.04874363 0.33020908 0.042131096
0.23034188 -0.107291296 -0.052840177 -0.53697085 -0.028815452 -0.16062894 0.040775485 0.043245055
-0.05854405 -0.5066984 0.110235564 0.027039727 -0.0106210625 -0.49949542 -0.27657446 0.06402195
-0.44652918 -0.006757678 -1.1033349 -0.083642185 0.38022316 0.0331103 0.04820346 -0.29480904
0.34450215 0.6736349 0.05234783 -0.26690584 0.07641949 0.07369465 -0.29912087 0.09350396
0.016371053 0.26531678 -0.17127481 0.08214591 0.56033075 -0.002170674 0.31328446 0.50876164
0.036479857 -1.0257721 -0.09909462 -0.062167767 0.10320834 -0.35491025 0.2791756 -0.17522803
-0.107168205 -0.07077913 -1.0878563 -0.032182373 -0.36857167 0.039252426 -0.5221034 -0.0073962146
0.30203363 -0.27102345 0.05416568 -0.4032434 -0.11914934 -0.017052757 0.49410987 0.040736873
-0.062441796 0.0095483055 -0.5148372 -0.28240627 -0.3535312 0.19566086 0.2891329 -0.00011345224
00000000: f03d c5be 9011 11bd 8586 6a3c d622 d9bd
00000010: 1f89 33bf abd9 6d3e 5559 39be 9a98 b03c
00000020: 2ed8 eabd 0a8f 4bbe ad8b babd bbfe d5bd
00000030: 7707 f1bb 98a1 4f3e a9f1 eb3c 40dd 5f3d
00000040: e94a c33e c0a1 a23e 7511 6abe 12ef 953e
00000050: 8111 403e 68a5 79bd 6274 49be 1376 c83e
00000060: 596d 313d 7924 1b3d 65aa 9e3e 64f5 803e
00000070: bb71 41bf efc8 223e acb8 abbe 2c2e efbd
00000080: c779 c53e 44ae 9f3e 3c54 473e d289 093e
00000090: db13 b73e 52b7 8fbd a208 993e 6d1a cdbe
000000a0: 30ba 963d 80a2 1a3e c203 40bd ed86 6e3d
000000b0: a487 a83c 5db2 41bd a913 1dbf 7ae6 c03e
000000c0: 1820 69bc 4f5a f2bd 86e5 4b3c def5 3cbe
000000d0: b8c3 dd3d a5dd babe e925 5e3e e01d 11be
000000e0: 1146 353f 97aa c13d 1dc6 d4bc 1b41 a4bd
000000f0: 7196 0a3e ec1c 4abc a830 e83c 4b2e bc3c
00000100: 1d32 ce3c 3188 713f c8ca 28be 7b11 14be
00000110: 512a 543e 49bf 44bf 6962 5c3e 5092 23be
00000120: 7556 e0be 531a 1e3d 244b 6bbe bb4a 033f
00000130: ce28 4f3e eba5 a63c 2a9d 8fbd ce4a 80be
00000140: fbd3 16bf 416a 88bd 6b07 82be c30a f83c
00000150: f8cc bebe 1a06 5f3d 1598 36bf 7390 f0bd
00000160: c545 b33d b852 f3bd 126f c6bd 9069 4cbd
00000170: fc31 c5bc 8374 6a3c 98fd 433e e933 efbc
00000180: 8415 70bd 0c84 23be 8d60 43bf 639a 8b3d
00000190: cfa0 cdbd b5f5 743e eaca 253e 40f2 d23d
000001a0: 44e2 05bf 3020 26bf 01d4 fcbd 86fe b9bc
000001b0: 8ab1 db3c f16c 3abf 1dd4 323e 3832 ad3e
000001c0: 85ce 0b3d b297 c3be e00c e4bd 6c8d 5e3e
000001d0: 8178 e8bd 9f1f 00bf 4609 9ebd d1b5 243e
000001e0: e2bf 5fbe 90ed 2dbf 654b 893c a8a2 65be
000001f0: 56a1 6d3e 685c 7a3e acad 1a3e b064 50bb
00000200: a77e c33e e5e3 8fbe 8765 7bbd 2daf dbbe
00000210: d94b e6ba f69e 8ebd 4d2e 52be 081a 3bbc
00000220: a572 c3bc f03d 8f3d d63a 123f 8aa3 19be
00000230: 7790 a6bd aee7 023e 28a4 9bbf b0d2 2b3d
00000240: 9902 9d3d 24c5 4ebe 9cc4 853d daec f0bd
00000250: b6d9 e7be fd9b d03c 6bd4 503e 8eaf 043b
00000260: aca1 a3be 741a b73d 0bfa 2ebe d4f6 9dbe
00000270: 7151 ddbe b05e 96be c1e2 0ebf cbd6 a6be
00000280: 05d1 a63e 4385 2a3e 2dc4 ba3c f2a4 81be
00000290: ed24 e63c 0c4c f33b fca2 2d3e 75e6 e9be
000002a0: 8616 ad3e e527 fdbe d290 d53d 61aa 563d
000002b0: 16c2 6e3e a97e b7be 93bc d6bd de3f be3e
000002c0: 4dd3 09bd d833 4ebe 7864 0fbd 7d62 38bd
000002d0: ceb6 463e 67a7 47bd 2a11 a93e a891 2c3d
000002e0: bede 6b3e 8abb dbbd f16e 58bd ec76 09bf
000002f0: 620e ecbc ea7b 24be 3204 273d ba21 313d
00000300: e3cb 6fbd fdb6 01bf 2fc3 e13d 6b82 dd3c
00000310: f703 2ebc ddbd ffbe 2b9b 8dbe f11d 833d
00000320: 799f e4be 836f ddbb 143a 8dbf 984c abbd
00000330: 9cac c23e aa9e 073d fe70 453d 36f1 96be
00000340: 9662 b03e 5673 2c3f ae6a 563d e2a7 88be
00000350: d281 9c3d 38ed 963d 5f26 99be 017f bf3d
00000360: 961c 863c 9ad7 873e aa62 2fbe 1d3c a83d
00000370: d671 0f3f de41 0ebb d266 a03e 343e 023f
00000380: e76b 153d 804c 83bf 1ff2 cabd a1a3 7ebd
00000390: e55e d33d ccb6 b5be 1bf0 8e3e fa6e 33be
000003a0: 017b dbbd a6f4 90bd e03e 8bbf aad1 03bd
000003b0: 6db5 bcbe 27c7 203d 92a8 05bf f25b f2bb
000003c0: 27a4 9a3e 96c3 8abe d5dc 5d3d eb75 cebe
000003d0: 9204 f4bd 39b2 8bbc f8fb fc3e b5db 263d
000003e0: f8c2 7fbd 7f70 1c3c 5fcc 03bf 8e97 90be
000003f0: 0b02 b5be 525b 483e 3a09 943e 35ed edb8

actionNet.4.bias f4 [128]
0.073538736 0.08967128 0.24531004 -0.11985627 0.21347582 0.02201142 0.17508064 0.23168391
0.18957399 0.07202772 -0.031750638 0.23216474 -0.0037351272 0.57832646 0.10136819 -0.17783925
0.4177999 -0.03812161 -0.055103328 0.09464427 0.12769857 0.33081633 -0.05085523 -0.063092604
-0.006743875 0.07998544 0.19574767 0.07723083 -0.07007755 0.26118648 0.044672634 0.33759475
0.06973792 0.10181912 0.12096343 0.07929622 0.10352118 -0.1019716 0.1280055 0.12025762
0.15361907 0.07902816 0.19032505 0.17060567 0.16537109 -0.0114954505 0.12629451 0.047494754
-0.016411925 0.042643208 0.025124371 0.08227796 -0.19303444 -0.032127317 -0.044993892 -0.04087489
0.044862818 0.1742315 -0.2705504 0.23587136 0.004156172 0.10168636 -0.016641982 0.13314469
0.07799413 0.10185614 -0.017635036 0.09435928 -0.03198672 0.10227561 0.19836259 0.17088933
0.09156006 -0.18415296 0.17188682 0.23468915 0.1865135 0.18400909 0.06846566 0.11247968
0.14118266 0.18653642 0.10549393 0.2928289 0.107106306 0.1261293 0.19336142 -0.04370908
0.21503194 0.12354898 0.22332664 0.15225545 0.20083506 0.04086917 0.08160523 0.09946405
-0.04868792 0.14151831 0.021314064 -0.0398133 -0.12215781 -0.15635718 0.13236293 0.12018052
0.0488249 0.09480967 0.057881497 0.12625863 0.09365999 -0.08489673 0.13637029 0.18778208
-0.14036867 0.17610742 -0.0851774 0.14468488 0.25886393 -0.009467603 0.107864395 -0.0022407128
0.09030573 0.10870324 0.14653866 0.043154646 0.24101222 0.08411669 -0.00804786 0.25293955
00000000: 7a9b 963d 93a5 b73d 8e32 7b3e 3477 f5bd
00000010: 6899 5a3e 4b51 b43c 5748 333e 8c3e 6d3e
00000020: af1f 423e 4583 933d f50c 02bd 98bc 6d3e
00000030: 09c9 74bb 340d 143f 209a cf3d 7e1b 36be
00000040: dee9 d53e 6825 1cbd 07b4 61bd dbd4 c13d
00000050: 6ac3 023e c260 a93e 934d 50bd b236 81bd
00000060: b9fb dcbb 68cf a33d 1472 483e 332b 9e3d
00000070: d284 8fbd 3cba 853e a7fa 363d 38d9 ac3e
00000080: c1d2 8e3d 8b86 d03d adbb f73d 0e66 a23d
00000090: ea02 d43d 7cd6 d0bd e013 033e a149 f63d
000000a0: 514e 1d3e 84d9 a13d 92e4 423e 41b3 2e3e
000000b0: 0a57 293e 6a57 3cbc 5953 013e dc89 423d
000000c0: 4d72 86bc a5aa 2e3d a0d1 cd3c 5981 a83d
000000d0: d2aa 45be ef97 03bd 844b 38bd 6e6c 27bd
000000e0: 13c2 373d be69 323e 9585 8abe 4388 713e
000000f0: 7f30 883b f040 d03d c454 88bc 1557 083e
00000100: 63bb 9f3d f499 d03d 5a77 90bc 703f c13d
00000110: 8204 03bd e075 d13d 901f 4b3e 9dfd 2e3e
00000120: d783 bb3d 9892 3cbe 1903 303e 5a52 703e
00000130: 65fd 3e3e e16c 3c3e b937 8c3d bf5b e63d
00000140: 3092 103e 6703 3f3e 340d d83d abed 953e
00000150: 8d5a db3d 0a28 013e 8900 463e 4b08 33bd
00000160: 5531 5c3e 3f07 fd3d bdaf 643e dae8 1b3e
00000170: b5a7 4d3e 6e66 273d a520 a73d cfb3 cb3d
00000180: fc6c 47bd 2dea 103e d59a ae3c 4513 23bd
00000190: e02d fabd 191c 20be 268a 073e 3421 f63d
000001a0: 9efc 473d 922b c23d 2615 6d3d f149 013e
000001b0: cfd0 bf3d 56de adbd a7a4 0b3e f249 403e
000001c0: cebc 0fbe 8155 343e 7d71 aebd 4628 143e
000001d0: d089 843e 011e 1bbc 02e8 dc3d ecd8 12bb
000001e0: 36f2 b83d ce9f de3d 3b0e 163e edc2 303d
000001f0: e8cb 763e 5f45 ac3d 2cdb 03bc 4b81 813e

actionNet.6.weight f4 [80, 128]
0.023191774 0.21978752 0.08884881 0.17172934 -0.60416704 0.28098828 0.13875891 0.42737234
-0.26743865 -0.44172236 -0.40599707 0.018331708 -0.18125615 -0.30435014 -0.10699654 -0.41456392
0.39323747 0.18673033 -0.23106611 0.3424068 0.4985065 -0.3681772 -0.10662927 -0.020480467
-0.26804194 0.32887253 0.16131854 -0.6958932 -0.24693172 -0.3345656 -0.06648554 0.22983629
0.2336764 0.4230086 -0.48800513 -0.02360108 -0.34445265 -0.014135282 -0.41081187 -0.27103436
0.007094569 0.123698436 0.48660234 -0.12034088 -0.24122487 0.13059624 0.662504 0.09207118
-0.24764177 0.31932303 -0.2558343 0.012760363 0.3983135 -0.0721053 0.60534346 0.12478977
-0.16693094 0.48404384 -0.82189685 -0.25629866 0.8745691 0.19307923 0.18019329 -0.40985653
1.2589666 -0.17489399 -0.073672436 -0.096301325 -0.13259493 0.5178977 0.33921126 0.03045949
0.21415657 0.101660326 0.018059049 -0.93676466 0.30700997 0.020304153 0.123241775 -0.20163652
0.09305247 -0.12308749 0.20911856 -0.018790707 -0.43500024 -0.20259614 0.199027 0.60885096
-1.5679849 -0.72431785 -0.10163658 -0.008392189 -0.087805964 0.32899466 -0.16333796 0.26656577
-0.008105049 -0.06422686 -0.59529734 -0.1018181 -0.25507167 0.3853932 -0.19093819 0.29793155
-0.40471503 0.073483825 0.27574748 0.22021157 -0.17816125 0.38665566 -0.35342595 0.45285156
0.56001306 0.37520042 0.27386326 -0.021750327 -0.3891847 -0.45119172 0.0234241 0.28550515
0.49049276 -0.2189096 -0.38812062 -0.35481867 -0.07984217 0.07351157 0.12985161 -0.1476092
-0.25662723 -0.07710192 0.41344362 -0.18345308 0.09308269 0.06512929 -0.00565803 0.2823336
0.08331572 0.18712367 -0.7486768 0.021211786 -0.19042322 -0.6106072 -0.060151104 -0.09869336
-0.084665634 -0.25134742 -0.21984707 -0.12110899 -0.4273875 -0.15225178 -0.0931312 0.07750894
0.099277206 0.040593747 -0.3043321 0.09066747 -0.055286873 -0.14519031 -0.17307049 -0.08239688
0.32722053 0.25272986 -0.21912076 0.15161686 0.37856477 0.023983533 0.0051947683 0.091661595
-0.039190844 0.20310983 0.12673563 -0.21136416 -0.36554363 0.040469956 -0.5713056 0.35180736
0.109518446 0.3277459 0.3766777 0.06686985 0.25942063 0.09449482 0.5169239 0.25386643
0.37112397 -0.04038806 0.47978345 0.1563179 0.41807908 -0.12848733 0.15292686 -0.216848
1.270844 0.277607 0.5204179 0.06779463 0.14482532 -0.23132549 0.19561608 -0.10963851
0.026968708 -0.102540955 0.21654889 -0.5475781 -0.09863871 -0.32627752 0.1253217 0.4967525
0.40431574 -0.6212751 0.056344364 -0.26042503 -0.22863643 0.13470353 0.35720482 0.469388
-0.62090415 -0.18238872 -0.3729469 -0.06795898 0.1687449 0.03683102 0.26781002 -0.15300986
-0.03726072 -0.42323956 -0.4287976 0.11010369 -0.5863904 0.029052237 0.798843 0.088096805
0.019643603 0.097238086 -0.027589004 0.040438876 0.024936786 0.04619496 -0.20473562 -0.04508251
0.028611725 0.4039052 0.8524411 0.009909897 -0.35129783 -0.49733055 -0.40565798 0.082619175
0.124177806 0.21753481 -0.14673002 -0.4676955 0.024771094 -0.17959315 -0.5073589 -0.52282554
00000000: adfc bd3c fb0f 613e 5df6 b53d d1d9 2f3e
00000010: b1aa 1abf b2dd 8f3e d116 0e3e 8cd0 da3e
00000020: b8ed 88be 6f29 e2be d9de cfbe 612c 963c
00000030: 369b 39be c8d3 9bbe 0121 dbbd b941 d4be
00000040: 6c56 c93e 3c36 3f3e 989c 6cbe f24f af3e
00000050: 3e3c ff3e b981 bcbe 7260 dabd a7c6 a7bc
00000060: cb3c 89be fb61 a83e b030 253e 0f26 32bf
00000070: abdb 7cbe 2f4c abbe 9229 88bd 345a 6b3e
00000080: de48 6f3e 9594 d83e cfdb f9be 0d57 c1bc
00000090: 195c b0be ab97 67bc ef55 d2be 04c5 8abe
000000a0: 8f79 e83b 9b55 fd3d f123 f93e 4775 f6bd
000000b0: a703 77be 05bb 053e dd99 293f d18f bc3d
000000c0: ce95 7dbe 4f7e a33e b7fc 82be d710 513c
000000d0: bfef cb3e f2ab 93bd caf7 1a3f c791 ff3d
000000e0: f2ef 2abe 98d4 f73e d567 52bf 9439 83be
000000f0: c3e3 5f3f 90b6 453e 9784 383e b7d8 d1be
00000100: d125 a13f 6917 33be 93e1 96bd a139 c5bd
00000110: f7c6 07be f294 043f 19ad ad3e 2e86 f93c
00000120: dc4b 5b3e 4a33 d03d 92f0 933c cfcf 6fbf
00000130: 6930 9d3e e554 a63c 2f66 fc3d ce79 4ebe
00000140: 4b92 be3d 4b15 fcbd 2d23 563e f8ee 99bc
00000150: 5ab8 debe 5d75 4fbe bccd 4b3e a8dd 1b3f
00000160: bbb3 c8bf e56c 39bf d726 d0bd 647f 09bc
00000170: 9dd3 b3bd fd71 a83e 1142 27be 4f7b 883e
00000180: 0acb 04bc 5f89 83bd 6865 18bf 0286 d0bd
00000190: c198 82be 4252 c53e 4d85 43be 7c8a 983e
000001a0: cf36 cfbe b07e 963d c62e 8d3e 247f 613e
000001b0: e76f 36be bbf7 c53e 3ff4 b4be 29dc e73e
000001c0: 045d 0f3f 451a c03e ce37 8c3e be2d b2bc
000001d0: 3843 c7be 9a02 e7be e6e3 bf3c bb2d 923e
000001e0: de21 fb3e d729 60be bfb7 c6be cbaa b5be
000001f0: 4b84 a3bd 3c8d 963d d2f7 043e de26 17be
00000200: a564 83be 9de7 9dbd e2ae d33e 20db 3bbe
00000210: 23a2 be3d 8162 853d ff66 b9bb 088e 903e
00000220: 6fa1 aa3d 599d 3f3e 48a9 3fbf 57c4 ad3c
00000230: 4efe 42be c150 1cbf 0161 76bd bf1f cabd
00000240: 2d65 adbd 9cb0 80be 971f 61be fd07 f8bd
00000250: 89d2 dabe e4e7 1bbe 92bb bebd 02bd 9e3d
00000260: d951 cb3d a145 263d 6bd1 9bbe deaf b93d
00000270: 7d74 62bd c5ac 14be 6439 31be b2bf a8bd
00000280: 7389 a73e cf65 813e 3161 60be 7341 1b3e
00000290: 3ed3 c13e 1d79 c43c e038 aa3b 13b9 bb3d
000002a0: 9486 20bd 06fc 4f3e fcc6 013e d96f 58be
000002b0: 8928 bbbe d3c3 253d 1541 12bf 1820 b43e
000002c0: 354b e03d 50ce a73e e6db c03e 0ff3 883d
000002d0: c8d2 843e 8086 c13d 2055 043f c8fa 813e
000002e0: f603 be3e f36d 25bd 2da6 f53e cd11 203e
000002f0: 760e d63e 2f92 03be dc98 1c3e 670d 5ebe
00000300: 04ab a23f 8122 8e3e 1c3a 053f e9d7 8a3d
00000310: 174d 143e 97e0 6cbe 954f 483e 288a e0bd
00000320: 7bed dc3c fe00 d2bd febe 5d3e 142e 0cbf
00000330: 1803 cabd d90d a7be 5554 003e 5856 fe3e
00000340: 7902 cf3e e30b 1fbf 59c9 663d 6e56 85be
00000350: ab1f 6abe b9ef 093e 8de3 b63e a053 f03e
00000360: 93f3 1ebf 1cc4 3abe e5f2 bebe 142e 8bbd
00000370: 77cb 2c3e 20dc 163d 651e 893e 9eae 1cbe
00000380: b29e 18bd dbb2 d8be 5c8b dbbe 0b7e e13d
00000390: ae1d 16bf f5fe ed3c fa80 4c3f 196c b43d
000003a0: 9feb a03c c324 c73d 5602 e2bc 3ca3 253d
000003b0: 3b48 cc3c ed36 3d3d 37a6 51be 70a8 38bd
000003c0: 2363 ea3c aacc ce3e 9439 5a3f 1f5d 223c
000003d0: 4fdd b3be 1ca2 febe 67b2 cfbe 3e34 a93d
000003e0: ef50 fe3d 72c1 5e3e 6540 16be c975 efbe
000003f0: c0ec ca3c 44e7 37be 46e2 01bf e5d7 05bf

actionNet.6.bias f4 [80]
0.05642382 -0.18183464 0.25636986 0.30404565 -0.23916565 -0.28544307 0.16191268 0.27754313
-0.042091403 -0.28878084 -0.06250143 0.21867277 -0.012299913 -0.13129565 -0.10599275 -0.19841771
0.030297564 -0.07763491 -0.09014747 -0.006412228 0.14019656 -0.030391695 0.03815411 -0.10680402
0.05398211 -0.12078058 -0.15562512 0.10062855 -0.41433218 -0.018672315 -0.0677827 0.12846112
0.09056651 -0.019887742 -0.02490928 -0.0481693 -0.17375688 -0.054642156 -0.0223237 0.094317794
-0.18200459 0.20309739 -0.1663317 0.1077903 0.021183742 -0.12998633 -0.15108083 0.05043827
0.08978729 0.069007434 0.26754966 0.27360442 0.1724367 -0.00087652076 0.08200668 0.32963777
0.2530982 0.1590377 -0.4668784 0.20616145 0.3293051 0.041428022 -0.07327396 -0.008507173
-0.16410486 0.30435932 0.18477568 -0.19939166 0.25219917 -0.23978202 -0.09561613 0.10560202
-0.19584475 0.106869526 0.16011627 -0.03917316 0.08917466 -0.21747753 0.18290593 0.31060705
00000000: aa1c 673d dc32 3abe e942 833e dfab 9b3e
00000010: d7e7 74be 9825 92be 70cc 253e 221a 8e3e
00000020: 0968 2cbd 15db 93be c000 80bd c1eb 5f3e
00000030: 9385 49bc 5e72 06be ba12 d9bd 032e 4bbe
00000040: 9932 f83c 0dff 9ebd 3d9f b8bd ab1d d2bb
00000050: b08f 0f3e 01f8 f8bc 7c47 1c3d 11bc dabd
00000060: 581c 5d3d cf5b f7bd 315c 1fbe 5716 ce3d
00000070: 5923 d4be aff6 98bc a8d1 8abd 508b 033e
00000080: ef7a b93d 9eeb a2bc 8c0e ccbc 2c4d 45bd
00000090: 53ed 31be 74d0 5fbd 31e0 b6bc b029 c13d
000000a0: 695f 3abe c3f8 4f3e db52 2abe 29c1 dc3d
000000b0: 8789 ad3c 231b 05be efb4 1abe 5c98 4e3d
000000c0: 66e2 b73d c553 8d3d 45fc 883e e115 8c3e
000000d0: 3f93 303e 50c6 65ba 1ef3 a73d 48c6 a83e
000000e0: 1696 813e c7da 223e b00a efbe fd1b 533e
000000f0: ae9a a83e 6eb0 293d a810 96bd ab61 0bbc
00000100: 1b0b 28be fcd4 9b3e d635 3d3e 542d 4cbe
00000110: 4020 813e 6b89 75be 64d2 c3bd df45 d83d
00000120: 878b 48be 69de da3d 85f5 233e 0974 20bd
00000130: 34a1 b63d 6eb2 5ebe b14b 3b3e e307 9f3e
