config/saves/training_weights/simple_spread/ddpg_weights/TargetactorWeights.pth (torch, 656068 bytes, 8 tensors)

actionNet.0.weight f4 [256, 403]
000000 1e 5b d9 bc 80 05 9d 3d d7 7e 88 3e d8 c8 6c bd
       -0.026532706 0.07667065 0.2665927 -0.057808727
000010 52 76 20 3e 68 8b 2d bd 7f 22 00 3e 39 4a 1b 3b
       0.15670136 -0.042369276 0.12513159 0.0023695363
000020 6e 48 96 bc ac b5 82 3c bb 57 06 bd bf 2f a8 bc
       -0.018345084 0.015955769 -0.03279851 -0.02053058
000030 36 b8 19 bd ee f9 82 bd 21 fd de 3c 2f a1 79 bd
       -0.037529193 -0.063953266 0.02722031 -0.060944732
000040 ea a4 d6 3c 74 07 20 3d 27 e4 30 bc 60 a2 e1 bc
       0.026201684 0.039069608 -0.010796583 -0.027543247
000050 21 36 ae bd f1 a2 33 bd ca 80 d4 bd 3d ff ac 3a
       -0.08506418 -0.043856565 -0.10376127 0.0013198626
000060 74 ba 10 3e df 26 37 bc 3a 95 51 bd 23 48 dc bb
       0.14133626 -0.011178701 -0.051167704 -0.0067224666
000070 1a 39 8a 3d a7 04 10 3d 74 81 75 bb 4b 9d 0f 3c
       0.067491725 0.035160687 -0.0037461193 0.008765529
000080 ac 65 27 be da ca 99 be 73 34 16 3b 6d 7c 40 be
       -0.16347378 -0.30037576 0.0022919446 -0.18797465
000090 7f d2 2d 3d 24 aa ef bc 1b a8 1a 3d 99 a8 b9 bd
       0.042437073 -0.029255934 0.037757974 -0.090653606
0000a0 e3 bc 47 3d ce 76 55 bd 8f 9c b6 bc 0c d9 80 be
       0.04876412 -0.052115254 -0.02229145 -0.25165594
0000b0 b3 de 8b bd a9 45 1c bd 6c 13 8b bd f1 02 93 3d
       -0.06829586 -0.03815237 -0.06790814 0.071782954
0000c0 f4 87 bf bd 2e 3f 38 3e d1 7d 3b 3c 6d 2c b9 3d
       -0.09352103 0.17992851 0.011443571 0.09041677
0000d0 86 48 c2 3d de ec a9 bd 54 9a 88 bc 3e 86 0e 3c
       0.09486489 -0.08297132 -0.016675152 0.008698998
0000e0 e2 8d 4d 3c b1 48 a3 3d cd 7e 69 3c 73 4f 02 bd
       0.0125460345 0.07972849 0.014251423 -0.03181405
0000f0 ea 11 76 3c 01 bc 16 3d 32 dd c2 bd 40 95 1d be
       0.0150189195 0.03680039 -0.09514846 -0.15388966
000100 dd 05 92 3c 7e 49 b0 bd be 62 8f bc d5 84 48 3e
       0.017825061 -0.086077675 -0.017503139 0.19581921
000110 f3 62 f0 3b 63 8a 8c 3d 88 65 91 3e a1 01 b3 bc
       0.0073360144 0.06862333 0.28397775 -0.021851363
000120 51 1b 8a 3d 8b ff f6 bc 6d 21 19 3d f8 7e 6e bd
       0.067434914 -0.03015115 0.037385393 -0.058226556
000130 f1 56 6b be 82 c5 be 3c b8 12 00 3d 16 0d 38 be
       -0.22982384 0.023287538 0.03126785 -0.17973742
000140 86 84 8d 3d dc 4f 65 3c d3 c9 44 3e d2 31 30 bd
       0.069100425 0.013996091 0.19217615 -0.043016262
000150 fe 36 4c b9 75 a0 79 bc b1 df 8d bc db ee 81 bc
       -0.00019475442 -0.01523601 -0.017318578 -0.015860965
000160 04 e9 46 bc 9a da 3e 3d 88 6e 0d bd 98 aa 58 3d
       -0.012140516 0.046595193 -0.03452924 0.052897066
000170 8e 6b aa bc ea 66 86 3c 70 ec 2d 3c 7f 19 45 bb
       -0.02080324 0.016406495 0.010615453 -0.0030075011
000180 7c 9d 24 bd c4 78 10 bd 43 4c 5c 3d 8d b8 dd bc
       -0.04018925 -0.03527142 0.053783666 -0.02706554
000190 ae 5e 25 3d 57 7c cf bc e5 93 dd 3c a0 f8 3f 3d
       0.040373497 -0.025327845 0.02704806 0.046867967
0001a0 10 26 27 bd 87 ab eb 3b c6 cd 2b 3d 6b 89 38 3d
       -0.040807784 0.0071920785 0.041944288 0.045052927
0001b0 70 38 28 3d e0 2f a9 bc aa d1 e5 bb 79 ff 9e bb
       0.041069448 -0.020652711 -0.0070135193 -0.004852232
0001c0 a1 db b4 3c a6 5f f7 bc 0b 3b ec 3b f3 cf fc 3c
       0.022077383 -0.030196976 0.007209187 0.030860877
0001d0 f0 e4 49 3d 3b 7e 03 3c 16 2e bb 3b e3 89 a4 3c
       0.049290597 0.008025701 0.005712281 0.02008528
0001e0 d7 a8 12 bd 22 fe 21 3d ca a1 57 bb c7 d8 e1 bc
       -0.03580555 0.039549 -0.003290283 -0.027569188
0001f0 33 dc 88 3b 34 4a 64 3d 83 32 dc bb 02 2f bf 3c
       0.0041766404 0.055734828 -0.0067198887 0.023337845
000200 51 18 1e bc a4 95 ab 3c b1 be 18 3c 94 b5 62 3d
       -0.009649352 0.020945378 0.009322808 0.055348948
000210 cd 4d ea 3c c4 88 0a bd f4 d9 23 bc f2 4d 8e bc
       0.028601551 -0.033821836 -0.010000695 -0.017371152
000220 43 f4 53 3d 6e 98 e1 bc bb 6e d3 3c a9 a5 e3 bc
       0.051746618 -0.027538504 0.025809636 -0.027788954
000230 8b c4 c5 bc d9 5d fe bc 7e be 03 3d 60 21 15 3d
       -0.02414157 -0.03105061 0.03216409 0.036408782
000240 02 f3 55 3a 11 9b 84 bb dd 2b 1c 3d 27 ba 21 3d
       0.0008161516 -0.0040468057 0.03812777 0.03948417
000250 31 bf 4b bc 94 94 5c 3c 99 f8 29 3d 74 8c ae bc
       -0.01243572 0.013463158 0.041496847 -0.021307208
000260 c3 4c 87 3c 39 ef 46 bc 57 64 59 3d d1 5d 0c bd
       0.016516095 -0.012141996 0.053074207 -0.034269158
000270 7b 10 93 b9 a3 e5 90 bc bb 53 18 bd 67 b4 23 bc
       -0.00028050304 -0.017687624 -0.037189227 -0.009991742
000280 29 f1 0d 3d 15 a2 5c 3d 35 bf 25 3d 6f 9e cb 3d
       0.034653816 0.05386551 0.040465552 0.09942328
000290 0c dd c7 3d b7 b0 52 bd 3c d7 df bd e7 e3 80 3c
       0.09758958 -0.05143806 -0.109297246 0.015733672
0002a0 78 cf 67 3d 24 aa 70 3d 0e 79 c4 3c 7a 6a 3f bc
       0.056594342 0.05875601 0.023983505 -0.011683101
0002b0 85 91 15 3d df a5 cc 3c 41 c1 3d 3d 5a 21 31 3e
       0.03651573 0.024981437 0.04632688 0.17297879
0002c0 0d 56 3b 3e 24 54 23 bd 27 31 e5 bd 13 87 00 be
       0.18294545 -0.039875165 -0.11191016 -0.12551527
0002d0 25 55 35 bc e6 01 cd bc 24 f4 a6 bd b6 c8 fa bc
       -0.011067663 -0.02502532 -0.08152035 -0.030613285
0002e0 4f 14 91 bd dd 1a ab bd ae be dc 3c 5f 55 27 3e
       -0.07083952 -0.08354733 0.026946392 0.1634116
0002f0 e3 57 76 3d 8a 9e 78 3d 3b ad 9a bd da d2 16 3e
       0.06014241 0.06069807 -0.07552572 0.14728871
000300 97 8c 81 bd 4b 89 6d 3d db b8 81 3c 0a ec 3f 3d
       -0.063256435 0.05799226 0.015835216 0.046855964
000310 cd 40 6e 3d e9 c8 54 bb 35 c5 97 3c 2d c9 d5 3d
       0.058167268 -0.0032468385 0.018526653 0.10438762
000320 08 09 85 bd 4e eb 8f bd 21 e8 c3 bc 06 f3 37 3d
       -0.06495863 -0.07027303 -0.023914399 0.0449095
000330 d0 fa 6e 3d 90 61 72 bd 7a a3 06 be 39 8f 72 3d
       0.058344662 -0.059175074 -0.13148299 0.05921862
000340 52 3e be 3d 50 40 25 be 94 2a ab bd 22 d9 09 3d
       0.092892304 -0.16137815 -0.083577305 0.03365434
000350 53 e7 3e bd a8 9d 9b 3d a9 4e df 3d 54 ff 0c 3c
       -0.046607327 0.0759843 0.10903675 0.008605797
000360 53 48 b0 bc 2a 70 58 bc 4b bd c2 bd 0b 2e c5 bd
       -0.021518862 -0.013210336 -0.09508761 -0.096279226
000370 ff cf cc bd 17 63 6b bd a0 51 84 bd b9 e8 81 bd
       -0.100006096 -0.057467546 -0.06460881 -0.063432164
000380 57 9c 74 bd 84 17 67 bd c3 b2 16 3d 7b e4 5b 3d
       -0.05971941 -0.05641891 0.036791574 0.053684693
000390 15 3b 32 3c ca 86 a7 bc 5f 77 d8 bc 32 5c 12 3e
       0.010878344 -0.020450015 -0.026424108 0.14292982
0003a0 a0 4f 04 3e 83 6b 72 3c ac 52 c9 bd 65 6b 02 be
       0.12921 0.014796141 -0.098302215 -0.1273628
0003b0 3b 38 28 3d 15 91 1d bd 62 d1 c9 3c 09 28 ff bb
       0.04106925 -0.03846844 0.024635974 -0.007786755
0003c0 fa 7f df 3c b8 06 08 3d 23 a6 91 3d 60 c3 e5 3c
       0.027282704 0.033209532 0.07111766 0.028047264
0003d0 0d 4c 57 3d fa 6b ac bc 65 a2 4e bd 8d 5a 4e 3c
       0.052562762 -0.021047581 -0.05044784 0.012594831
0003e0 b8 85 2c bd 78 ef 32 bd 01 d0 0e 3d ab d4 6b 3c
       -0.04211971 -0.043685406 0.034866337 0.014393966
0003f0 7e 2a 88 bc d0 ed 03 bd 5f 74 3f bc 53 cb 22 bd
       -0.016621824 -0.032209218 -0.01168546 -0.039744686

actionNet.0.bias f4 [256]
000000 d8 95 44 3d 58 a1 19 bc 0d 27 2f 3c d3 53 91 3d
       0.047994465 -0.009376846 0.010690463 0.07096066
000010 eb 55 14 3c 31 eb bb 3c 63 45 1b 3d a9 fa 47 3c
       0.009053688 0.022939296 0.03790797 0.012205758
000020 b9 4e da bc b6 8a a6 3c 8f b6 69 3d 47 07 db ba
       -0.026648866 0.020329814 0.057058867 -0.0016710543
000030 57 3f 6c bc 9a 15 8d 3d fd 2f 2c bd 4e 6f 24 bd
       -0.014419398 0.06888886 -0.042037953 -0.04014521
000040 de 7f f4 3b c3 c7 f5 3c 88 0a 04 3c 55 e4 6c 3c
       0.007461532 0.03000248 0.0080591515 0.0144587355
000050 b3 c0 1c bd 65 50 40 3d 1a ce 9b 3c 7b a1 bf bb
       -0.03826971 0.04695167 0.019019175 -0.0058481074
000060 53 85 ef 3c e5 93 82 3c 25 99 f0 3c f8 cf 2d 3c
       0.029238379 0.015939662 0.0293699 0.010608666
000070 45 a5 99 3b d7 b2 8f 3c 52 9a 78 3d 30 62 73 3c
       0.004688891 0.017541332 0.060694046 0.014854953
000080 e9 d0 17 3d 49 b6 db bc 56 b0 4e 3d d7 df d8 3b
       0.037064467 -0.026820319 0.050461136 0.0066184807
000090 de 71 0e 3d 14 20 04 bd d8 29 e6 3b 25 21 6e bc
       0.03477656 -0.032257155 0.007024031 -0.014534269
0000a0 90 78 95 bc eb 22 3e 3d 5f a5 86 3d d2 54 19 3d
       -0.018245965 0.04642002 0.06574511 0.037434407
0000b0 22 7a 11 3c 4f 53 64 3d e1 66 3a 3d 14 d6 f9 3c
       0.008879216 0.05574351 0.04550827 0.030497588
0000c0 57 fe b4 3c 25 6e a7 3c 49 34 c6 bc 25 95 d8 3a
       0.022093935 0.020438263 -0.024194853 0.0016523941
0000d0 fe f5 9a bc e1 fb b6 3c 39 48 59 3d a6 15 55 bc
       -0.018916126 0.022336902 0.053047393 -0.01300565
0000e0 67 ed 01 3d f1 d0 e6 3c 05 1e 19 3d 53 94 9b bc
       0.031720545 0.028175803 0.037382144 -0.018991625
0000f0 55 b0 7f bb 3c f2 3d 3d 4a 0d 38 3d f9 1c 01 3d
       -0.0039015014 0.04637359 0.04493455 0.03152177
000100 de a1 4d 3d b8 26 8d 3d 4c f4 90 bc c5 04 1b bd
       0.050203197 0.06892151 -0.017694615 -0.037846345
000110 26 2f e9 3c 21 d5 00 3c 01 86 ef 3c 89 23 6f 3d
       0.028464865 0.007863314 0.029238703 0.0583835
000120 c1 2d c6 3c 32 5e ad bc 6a 1e 83 bc b7 ff dd b9
       0.024191739 -0.02116308 -0.016005713 -0.00042342927
000130 03 ef 14 bd f6 d6 1e 3d e4 fa 66 3d 1b a7 92 bc
       -0.03636075 0.03877922 0.05639161 -0.017901948
000140 35 a5 de 3c 79 0f 03 3d 45 4f 97 bc db c3 aa 3c
       0.027178386 0.031997178 -0.018470416 0.020845344
000150 ea 7f 3d bb 19 af 46 3d c3 49 a3 3c e8 d6 4c 3d
       -0.0028915354 0.04850683 0.019932633 0.050009638
000160 9d 42 97 bc 20 82 9b 3c 3c 9b cc bc f5 81 2b bd
       -0.01846438 0.018982947 -0.024976365 -0.041871984
000170 0d 8e a9 3c 23 53 fe 3c 3f 09 10 3c 0e 59 90 bc
       0.020697618 0.031045502 0.008791267 -0.01762059
000180 05 3c b7 3c 95 c8 c0 bc 1b ab 11 bd e8 18 cb 3c
       0.022367487 -0.023533145 -0.03556357 0.02479215
000190 90 66 b2 bc 8c d4 31 bd 60 a3 db 3b d1 3a 45 bc
       -0.021777421 -0.04341559 0.0067028254 -0.012037949
0001a0 47 0a e1 3c ef 20 39 bd 0b f6 ad bc e8 fe 71 3d
       0.027470721 -0.045197424 -0.021235486 0.05908099
0001b0 5d 42 6c 3d 26 a4 b2 3c 96 0c 28 3d 07 a8 9f bc
       0.057680476 0.021806788 0.041027628 -0.019489301
0001c0 c4 73 d3 3a b3 4c 05 3c 9b 00 36 3c de a6 d8 bc
       0.0016132523 0.008135962 0.011108543 -0.026446756
0001d0 5a e4 d9 3c 0b d4 01 bc ca 66 46 3d be 7d 96 bb
       0.026598144 -0.00792409 0.04843787 -0.0045926264
0001e0 b9 04 5d 3a 5a 5f 05 bb 9c 95 80 3c b7 c1 17 3d
       0.00084311847 -0.0020351023 0.01569634 0.037049975
0001f0 ba 43 a7 ba 37 32 cb 3c a0 8d b7 bb 7c c1 cb bc
       -0.0012761273 0.024804218 -0.0056016 -0.024872534
000200 89 59 43 bd 61 fd 6c 3d cd 80 d7 bc 29 b8 7c 3c
       -0.04769281 0.05785883 -0.026306534 0.015424767
000210 5c 48 9a bb 44 f5 32 3d 5e d9 99 bb a3 38 ab 3c
       -0.004708333 0.043690935 -0.0046951016 0.02090103
000220 3e cb f7 ba 72 7e 97 3d 41 80 a7 3c 47 81 28 3c
       -0.0018905175 0.073971644 0.020446898 0.010284728
000230 a6 9c 09 3d 53 de 01 3d 80 f9 9d bc b7 f3 bf bc
       0.033596657 0.031706166 -0.01928401 -0.023431642
000240 64 95 4d bc d4 fc 2d 3c a4 da aa 3d d8 dc 32 3d
       -0.0125478245 0.010619361 0.08342484 0.043667644
000250 c6 ba b7 3c 8d 09 35 3d 9a 47 b9 bc 20 d7 66 3d
       0.022427928 0.04419856 -0.02261715 0.056357503
000260 15 55 6e bc 8d 5c 22 3d 02 9f 25 bd 2f 8b 32 3d
       -0.014546652 0.039639045 -0.040434845 0.043589767
000270 5f dc dc ba cc 9f c6 bc a7 91 85 bc 84 e4 07 3b
       -0.0016850344 -0.024246119 -0.016304804 0.002073557
000280 fb 33 01 3c 2e 73 9c bc 16 bf 04 3d 40 12 a9 bc
       0.007885928 -0.01909789 0.032408796 -0.020638585
000290 a7 84 2d 3d 19 08 15 bb a2 70 b4 3c b7 ca 20 3c
       0.042362835 -0.0022740422 0.022026364 0.009813956
0002a0 98 53 fe bb 5a 56 37 3d 86 d1 eb bc ac 30 16 bd
       -0.00776143 0.044760086 -0.028786432 -0.03666751
0002b0 e4 3a 1d 3d 1d f3 67 3d 95 0d 70 bc 1b 31 79 bc
       0.03838624 0.056628335 -0.014651676 -0.015209462
0002c0 5d a3 4c 3d a0 1b 9b 3c 85 21 fc 3c 75 8a b0 bc
       0.049960483 0.018934071 0.030777702 -0.021550396
0002d0 71 92 bf 3c 49 b6 32 bc 01 87 61 3d 7f 3f c5 3a
       0.023385258 -0.010907718 0.05506039 0.001504883
0002e0 8d ab 22 ba 59 83 24 bd c4 ef a0 bb 09 23 b9 bc
       -0.00062053726 -0.040164325 -0.004911395 -0.022599714
0002f0 ae ce 47 bd 47 7b 33 bd cb 56 63 3d 1c c0 01 bd
       -0.04878109 -0.04381874 0.055502694 -0.03167735
000300 0f 65 0a bd be 05 c9 3b 36 f3 2d bd 86 ea cc bb
       -0.033787783 0.0061347177 -0.042468272 -0.0062535433
000310 0d 9d dc bb 3c 48 c7 3c 78 bf f5 bb 0b 0c 1d 3d
       -0.006732589 0.024326436 -0.0074996315 0.038341563
000320 36 26 92 3c 90 79 27 3c 43 ba 55 3b 35 f3 ab bc
       0.017840486 0.010221854 0.0032612241 -0.020989994
000330 67 e0 28 bd a7 1d 54 bc bb 2f 4e 3d 31 9f 10 bd
       -0.04122963 -0.012946523 0.050338488 -0.035308067
000340 de 68 8f 3c b2 d9 0a bd 8b 5e 3b 3d 54 2f d5 ba
       0.01750606 -0.033899017 0.04574446 -0.0016264715
000350 66 5f 36 3d 95 b0 0b bc ea 3d 51 3d 4c 0e f4 3c
       0.044524573 -0.008525987 0.051084436 0.029791974
000360 bc ac 5e 3c 10 5c d1 bb d8 ab 2f bd d8 67 35 bc
       0.013590988 -0.0063891485 -0.042888492 -0.011072122
000370 3f 4a af 3d be 9c 9c 3c 62 5b 67 3d 40 54 11 bc
       0.08559083 0.01911771 0.056483634 -0.008870184
000380 6b 46 13 bd ba 8a 38 3d f7 86 ba bc aa 13 91 bc
       -0.035955828 0.045054175 -0.022769434 -0.017709572
000390 55 8e 15 3d c7 1d 6e bb 0f 9c ca 3c 66 bd 67 3b
       0.03651269 -0.0036333667 0.024732618 0.0035360693
0003a0 17 ab 61 3d be 1b a5 3b 4f 3a 16 bd d4 f4 98 bb
       0.055094805 0.0050387075 -0.0366767 -0.0046678577
0003b0 68 28 1b bd 2a 2c a6 bc 0f 6a c3 3c 97 11 5c 3d
       -0.03788033 -0.020284731 0.023854284 0.053727712
0003c0 a4 a5 f4 bc 57 1d 76 3b f6 32 12 bd 37 a1 fb bc
       -0.02986414 0.003755411 -0.03569313 -0.030716522
0003d0 31 1e 3d bd 75 06 8c 3c 13 68 df 3c 3c ba 19 bd
       -0.04617137 0.017092923 0.027271306 -0.037531123
0003e0 c6 28 55 3d 51 3b 2c bc ec bd ba 3b 90 df 53 3d
       0.052040838 -0.010512189 0.00569891 0.051726878
0003f0 59 c7 6d bb ff 7a d5 3c a1 3d 2a 3d 32 55 dd bc
       -0.003628215 0.026059626 0.04156268 -0.027018163

actionNet.2.weight f4 [128, 256]
000000 bb bc b6 bc bc 24 af 3c c6 dd e3 bc ee f7 3e 3d
       -0.02230679 0.021379821 -0.02781571 0.046623163
000010 36 c5 5e 3d 5c 83 98 3d 47 24 a1 bd 05 f7 b1 3d
       0.054387294 0.0744693 -0.078682475 0.08689693
000020 41 cc 3a 3d 60 3b 2e 3a 94 ea e1 3b f2 10 b8 3d
       0.045604948 0.0006646421 0.006894419 0.08987607
000030 99 91 5c 3c 0d 0a 09 3d 51 83 ef bc c2 7a 27 bd
       0.013462448 0.03345685 -0.029237421 -0.040888555
000040 9e 0e 79 bd b5 40 85 3c f8 13 bb bc c1 1b 5f bd
       -0.060804956 0.016266206 -0.02283667 -0.054469828
000050 b0 21 e3 3c bd 47 21 3d 73 38 80 3c 36 6f 47 3d
       0.027726024 0.039375056 0.015651917 0.048690043
000060 0f 33 2a be 59 a5 2d 3d 3c cb d2 3c fe 4b 38 bd
       -0.1662104 0.042394016 0.025731675 -0.044994347
000070 01 c4 2e bd 6b 89 87 3d ac 24 a3 3d 47 cd 6d bd
       -0.042667393 0.06618007 0.07965979 -0.058057096
000080 00 11 5b 3d 4a 6e 19 3c da 45 ca bc 08 89 2c 3d
       0.05348301 0.009364674 -0.024691511 0.04212287
000090 62 56 e3 3c 79 b7 58 3d 70 e6 d9 3c 0a 8b 1f 3c
       0.027751151 0.05290935 0.026599139 0.009737739
0000a0 a0 ea b8 bd 5f 25 a5 3d 70 40 9e 3d 98 85 05 bd
       -0.09029126 0.080637686 0.07727134 -0.032598108
0000b0 ba 06 23 3d f7 6a 6a 3d 0a 93 6f bd 84 12 b2 bd
       0.039801337 0.057230916 -0.058489837 -0.08694938
0000c0 e4 b2 2b bd 3b 21 75 bc 70 3d 00 3c 84 8f 71 3a
       -0.04191865 -0.014961536 0.007827148 0.0009214806
0000d0 94 a1 e6 3c 36 c3 26 3d 62 e5 6d 3d e5 9f 35 bd
       0.028153218 0.04071351 0.058080085 -0.04434194
0000e0 33 5f a9 bc 2a 5e 8b bd 80 c3 c3 bc 17 ae 38 bd
       -0.020675277 -0.0680507 -0.023896933 -0.0450879
0000f0 8d ec 4a 3d 71 97 99 bd e3 3a 00 3d 9f de ae bd
       0.049542 -0.07499588 0.03130616 -0.08538555
000100 0e 7e 86 bc 0e 8b dc 3d fb 1f 79 bd 06 b6 94 bd
       -0.01641753 0.1076871 -0.060821515 -0.07261281
000110 e5 82 86 3c 03 fd 65 3d 99 a4 6f 3c 25 23 13 3d
       0.016419837 0.056149494 0.0146266455 0.03592219
000120 7a d8 b6 3c b3 52 41 bd 78 b3 55 3c ea 88 cc bc
       0.022320021 -0.04719801 0.013043277 -0.02496763
000130 b4 f4 1b bd 3f 3c c2 3d e6 0f 20 3d c8 14 ec 3c
       -0.038075164 0.09484147 0.039077662 0.028818503
000140 7f ce ad bd 26 1f ea 3c 3f 4f af bc 70 8e 0a bd
       -0.08486652 0.028579306 -0.021400092 -0.033827245
000150 b1 27 cf 3b 9d f4 17 bc 28 6f 6c 3d 3a d7 7a bd
       0.0063218703 -0.009274629 0.057723194 -0.061240412
000160 69 dc 5d bd dd 9a d6 3d 20 b0 a7 bb a3 61 95 bc
       -0.054165278 0.104787566 -0.0051174313 -0.018235033
000170 e2 4b 0b 3c 60 f7 bb bd 03 93 0d 3c 80 dc ad ba
       0.008501979 -0.091780424 0.008641007 -0.0013264567
000180 04 aa e8 3c b0 98 7a 3d 79 38 03 bc b0 d9 a6 bd
       0.028401382 0.06118077 -0.00800907 -0.08146989
000190 9a 0a b4 3d 16 05 8f bd b9 ea 7d bc 68 44 52 3d
       0.087910846 -0.06983392 -0.015497857 0.05133477
0001a0 4e 19 0b 3e 78 78 d5 3d 5e 6b b9 bd 91 04 02 bd
       0.13583872 0.10423368 -0.09053682 -0.031742636
0001b0 ff 8e c1 3d df 51 aa 3d 2c 48 ab bd a0 c6 b6 3c
       0.094511025 0.08316397 -0.08363375 0.022311509
0001c0 56 57 52 bd 10 ec 75 bc da 84 b4 bd 7f bb 6c bc
       -0.05135282 -0.015009895 -0.08814402 -0.014448999
0001d0 e3 cf 97 bd 30 c1 4b bd 48 e4 b1 39 2c f2 ce bc
       -0.07412698 -0.049744785 0.00033930154 -0.02526196
0001e0 a5 ed ec 3d 64 c3 55 3d 23 51 ae bd 94 e6 25 3c
       0.115687646 0.052188292 -0.08511569 0.010125775
0001f0 d2 3d 03 bd ab 55 1f 3d f2 e2 cd 3d 4d b7 e0 3d
       -0.03204138 0.03890006 0.10053052 0.10972462
000200 d5 ab 49 3d 22 1b b1 3d d0 42 32 3d d8 ea 58 bd
       0.049236137 0.08647753 0.04352075 -0.05295834
000210 f0 62 04 bd 98 44 23 bc 49 10 9d bd 3a 82 4b bc
       -0.032320917 -0.0099650845 -0.07669122 -0.012421185
000220 de b0 9a bc f9 fc 85 3d a0 5a 15 bc e0 be 81 bc
       -0.018883165 0.06542391 -0.009115845 -0.015838087
000230 74 c6 fb 3d b6 a2 1c 3d 36 fd 6b bd 19 47 0c bd
       0.12293711 0.03824111 -0.057614528 -0.03424749
000240 31 88 13 3c d0 b4 47 bd a6 bc 26 3d 2f 83 07 bd
       0.0090046385 -0.04875642 0.040707253 -0.03308409
000250 83 93 3f bd 4c d1 5d bd ac 1c c9 bb 6e 3e 2b 3d
       -0.046771538 -0.05415468 -0.006137451 0.041807584
000260 a0 0e a9 bb 39 fb 31 bd 5a 57 50 bd b8 43 11 bd
       -0.005159214 -0.043452475 -0.050864555 -0.035464972
000270 2d de 46 be 16 7a 1d bd f8 3e 0a 3d fa c7 6b bd
       -0.19420691 -0.03844651 0.033751458 -0.05756376
000280 6d 5a 79 3d 1a 48 a3 bd fd b9 27 3d e1 2c c9 bd
       0.060877252 -0.07972737 0.040948857 -0.09823013
000290 4c 87 88 bd a9 34 cc 3c 60 cd 13 3d e1 eb c5 bc
       -0.06666431 0.024927454 0.036084533 -0.024160327
0002a0 83 1e 47 bd e8 58 a1 3c 23 52 19 bd 2a 46 d2 3d
       -0.048613083 0.019695714 -0.037431847 0.10267289
0002b0 5f c2 59 bd e1 b7 e3 3b 8d 19 aa bd b1 5e 8c bc
       -0.053163882 0.0069494103 -0.08305655 -0.017134996
0002c0 a6 a3 80 3c cf 6e 5a bc 80 81 bc 3b 64 c1 6c 3d
       0.015703034 -0.013332083 0.0057527423 0.05780162
0002d0 29 2c 7e 3d 80 4a 7d bd 82 7f df 3d da 4a 46 3b
       0.062053833 -0.061838627 0.10912992 0.0030257017
0002e0 47 fc 6f bd 2e 54 c9 3c c5 e9 82 bd 08 60 4d 3d
       -0.0585902 0.024576273 -0.06392244 0.05014041
0002f0 2e 0d 3c bd 32 f2 79 bd 0c 57 fb ba 09 f1 fd 3b
       -0.045911007 -0.06102199 -0.0019175722 0.007749681
000300 a5 b7 35 3e b8 32 7f 3c 59 60 85 bb 3a a6 3b 3d
       0.17745836 0.015576057 -0.0040703234 0.045812823
000310 d5 d8 5e 3d c8 5c 88 bd 28 0b 31 bd d7 29 aa bd
       0.054406006 -0.066583216 -0.04322353 -0.083087616
000320 5c 3d 0f 3d 3a 2a 20 3d 9a 8c 8b 3d 27 24 c0 3d
       0.034970626 0.03910277 0.06813927 0.093818955
000330 02 58 db 38 24 65 b1 3c 88 34 bb bb 80 d1 5e bc
       0.000104591265 0.021654673 -0.0057130493 -0.013599753
000340 a8 9d 0a 3c 1a e3 44 bd 8e 6a f2 3d 0e a4 29 3d
       0.00846044 -0.048068143 0.1183673 0.04141622
000350 6a d4 3a bd 40 3f e0 3b aa 06 42 bc 42 e2 32 bd
       -0.04561273 0.0068434775 -0.011842409 -0.043672808
000360 e0 3d c6 bc ba 44 c3 bc aa 64 70 3d 1e 30 55 bd
       -0.024199426 -0.023836482 0.05868975 -0.05204784
000370 c6 81 7a 3d 6d c1 55 bd c6 65 e4 3c 4d 9e e4 3b
       0.061158918 -0.05218642 0.02788056 0.0069768787
000380 58 73 34 bc 93 ca 9f bd f4 2c f7 3c 48 ed 0f 3c
       -0.011013828 -0.0780231 0.030172803 0.0087846
000390 0d 40 ac bd 8d fd 9d bd 01 8f e0 3b 07 8c cc 3d
       -0.08410654 -0.077143766 0.006852985 0.099876456
0003a0 43 3b 28 3d a8 0f 6e bc a5 38 12 3c ab 4d 02 3c
       0.04107214 -0.0145301 0.008924638 0.007953088
0003b0 a3 72 52 3d 83 e3 02 bd be dd 1d 3d de 91 3c 3d
       0.051378857 -0.031955253 0.038541548 0.046037547
0003c0 8a b8 59 3d 41 e7 86 3d 7f 5a 40 bd 57 44 c2 3c
       0.053154506 0.06587077 -0.046961304 0.023714228
0003d0 f6 72 45 bd bb 35 66 bd 60 1a 40 3b 3b 5d 17 3c
       -0.04820534 -0.056203585 0.0029312596 0.0092385365
0003e0 17 44 91 3d 44 63 38 3d a8 7c 28 bc 24 69 47 3c
       0.07093065 0.045016542 -0.010283627 0.012171064
0003f0 18 37 65 bc d5 59 58 3d 7a 9a a9 3c 93 be 01 bb
       -0.013990186 0.052820046 0.020703543 -0.001979743

actionNet.2.bias f4 [128]
000000 4f 8c 9e 3b ab 0e 10 bd 3f c9 49 3d 3e 8b 21 3d
       0.0048385034 -0.03517024 0.04926419 0.039439432
000010 4f 3b 8a 3d e1 b0 54 3d b0 c4 2f 3d d4 50 07 3b
       0.067495935 0.051926497 0.042912185 0.0020647543
000020 3e a2 fd 3c 18 c9 6b bd 49 17 4c 3c ed dd 58 bd
       0.030961152 -0.057564825 0.0124567235 -0.05294602
000030 c4 b0 1d bc 95 9f 0a bd 01 53 99 3d 66 37 82 3d
       -0.009624664 -0.033843596 0.07486535 0.06358223
000040 c1 e8 d4 bc 4a 69 90 3d 95 87 2c 3b 66 b4 66 bd
       -0.025989892 0.07051332 0.002632593 -0.056324385
000050 50 8e 08 bc be d7 f6 3c 51 93 01 3d f1 93 61 3c
       -0.008334711 0.03013217 0.031634632 0.013768182
000060 97 52 b2 3c 81 fe ed bc fb 6a 07 bb 51 46 59 3d
       0.021767898 -0.029052021 -0.002066313 0.053045575
000070 6a c0 5d bd 2d cf b9 3d e6 a6 b9 bc 49 37 ef bc
       -0.05413858 0.09072719 -0.022662591 -0.029201167
000080 2c 26 2a bd fc 1f 24 bd 58 ff ef bc e8 cb 41 bb
       -0.04154031 -0.040069565 -0.029296562 -0.0029571
000090 73 38 5b bc 20 24 39 3d a6 0c 58 3d 4a bd 1d 3d
       -0.013380158 0.045200467 0.052746437 0.0385106
0000a0 73 b3 38 bc f3 cb 0a 3b fc 60 13 3d d7 cf 28 bd
       -0.011273253 0.0021178692 0.035981163 -0.041213837
0000b0 d9 33 05 bd e0 72 b5 3c af ca ed bc 0d 34 58 3d
       -0.03252015 0.022149503 -0.029027311 0.052784014
0000c0 17 73 ac 3d 12 c5 7c bd b8 d3 1b bd a4 a5 b7 3c
       0.08420389 -0.06171138 -0.038043708 0.02241785
0000d0 81 db b2 3c e5 c0 bb 3d 42 9c 2d 3d 03 1f 23 3d
       0.021833183 0.09167651 0.042385347 0.039824497
0000e0 b9 19 26 3c 84 ca ec ba 7b 02 65 39 48 54 b0 3c
       0.010137969 -0.0018065725 0.00021840066 0.021524563
0000f0 33 d8 51 3c f6 7b 63 bd 3f 13 77 3d be 78 e5 bc
       0.012807894 -0.05553814 0.06032109 -0.028011676
000100 5c ac 77 3d 36 e3 7d 3d 48 03 81 bc ec b3 da 3b
       0.06046711 0.061984263 -0.015748635 0.0066742804
000110 27 72 cd 3c 88 fc 6f bd c2 6a 0b 3d f6 92 86 3d
       0.025078846 -0.058590442 0.03403736 0.06570999
000120 27 9b df bb 28 e2 2e bd bf af 20 bc 25 5e 48 3c
       -0.0068239155 -0.04269615 -0.009807526 0.012229477
000130 63 a0 33 3c 75 ef 31 bc 72 66 68 3d 0a 85 61 3d
       0.010963532 -0.010860314 0.056738324 0.055058517
000140 58 51 7f 3d ef fe 82 bc ab 09 a9 bc 80 28 f6 3b
       0.062333435 -0.015990702 -0.020634493 0.007512152
000150 81 d5 64 3c 22 db 70 3d ee d6 e1 3c 68 eb 9b 3d
       0.013966919 0.05880273 0.027568307 0.076132596
000160 59 a0 8b 3c 01 84 17 3d 5f b5 94 3d c8 fa cb bc
       0.017044233 0.036991123 0.07261156 -0.024899855
000170 83 5f 91 bb 05 a9 1b 3c a5 ca 47 bd e9 e1 28 3d
       -0.0044364347 0.009500747 -0.04877724 0.04123107
000180 cd cf 4d 3d 99 83 8b 3d 52 27 aa 3b 29 7a 53 3c
       0.050247002 0.0681221 0.0051926756 0.012907543
000190 0d 50 f0 3d bc 9e 19 3d 4a 37 08 3e 77 a1 7f bd
       0.117340185 0.037504897 0.13302341 -0.062409844
0001a0 e8 6f 86 bc 60 b6 29 3b 28 01 b2 3c d1 65 36 bd
       -0.016410783 0.0025896057 0.021729067 -0.044530693
0001b0 96 76 98 bc 06 96 78 39 9c 0b af 3c 00 cb c8 3d
       -0.018611234 0.00023707011 0.02136784 0.09804344
0001c0 3d 0f ff 3c ff 11 c1 bb e9 ee 43 3d a5 44 55 bd
       0.031135196 -0.005892038 0.047835264 -0.052067418
0001d0 31 25 61 3c b9 d3 7b bd dc bf 3b bd f9 b5 02 bd
       0.013741777 -0.06148121 -0.04583727 -0.031911824
0001e0 3a c8 91 3c 00 76 45 3c 15 aa 1e bd 50 d7 65 3d
       0.01779567 0.012052059 -0.03873642 0.05611354
0001f0 80 c3 28 bd f2 ae 6a 3b e6 5a 63 bc 20 de 10 3b
       -0.04120207 0.0035809842 -0.013876652 0.0022105053

actionNet.4.weight f4 [128, 128]
000000 42 47 e6 39 d6 b6 a0 3d be 8e da ba 82 3e dd 3a
       0.0004392211 0.07847373 -0.001667462 0.0016879591
000010 6c 0a 9b bd 6b d5 15 3d cc f2 77 3d 63 5c b7 3d
       -0.07570347 0.036580484 0.060534284 0.08953168
000020 f2 92 07 b8 67 2b af 3b 97 0c 3d 3d 83 8f b5 3c
       -3.232336e-05 0.00534575 0.046154585 0.022163158
000030 b5 ad fd bc 9b d6 9b 3d c1 25 6d bd 28 71 09 3c
       -0.030966619 0.07609292 -0.057897333 0.008388795
000040 d2 0e 95 bd e0 e7 7f bd 7b 54 eb bc 7e 7b ae bd
       -0.072782174 -0.062476993 -0.028726807 -0.08519648
000050 5c 12 b1 bd 14 92 ae 3d fa 0b b8 3d 35 81 16 3d
       -0.0864608 0.08523956 0.08986659 0.036744315
000060 0a c4 01 3d 4c 7a 9c ba d0 d4 b9 3d 79 4f b0 3c
       0.031681098 -0.0011938303 0.09073794 0.02152227
000070 d2 5f a7 bc 58 3c ba bd 02 48 8c bc 58 51 e7 3b
       -0.020431433 -0.09093541 -0.01712418 0.0070592575
000080 67 39 ca b9 c2 bd 48 bb 1e 8b 87 bd a8 d9 92 bc
       -0.0003857121 -0.0030630683 -0.066183314 -0.017926052
000090 50 88 c1 bd 1d 40 ac 3d 69 46 6e bd c2 e8 43 bd
       -0.09449828 0.08410666 -0.058172617 -0.047829397
0000a0 06 d0 43 bd 8f b8 9d bc 2d f7 84 3d d1 ac 62 3d
       -0.04780581 -0.019253043 0.064924575 0.05534059
0000b0 98 43 98 bd e2 69 3a 3d 91 06 8d 3d 8a 71 d5 3a
       -0.074347675 0.045511134 0.06886018 0.0016284448
0000c0 c3 d0 8d 3d 7a 6f 7f bd b7 e2 1b 3d a9 a7 64 3d
       0.06924584 -0.06236217 0.03805801 0.055823956
0000d0 0e 9c 9b bc 2d 30 95 bd 81 97 23 3d 9e 77 a7 bd
       -0.018995311 -0.072845794 0.039939407 -0.08177112
0000e0 50 47 8d bc f3 5e 8c bd a4 22 e1 3a 22 e0 52 3d
       -0.017245919 -0.068540476 0.0017176461 0.05148328
0000f0 33 27 a2 3d 56 d9 19 3d 79 50 6a 3d 9f 03 98 bb
       0.07917633 0.037560783 0.05720565 -0.0046391035
000100 c2 22 35 bd 08 d3 7c 3c 59 82 cf 3c f2 36 c5 3d
       -0.0442226 0.015431173 0.02533071 0.096296206
000110 25 58 b4 3d d1 f9 4e bc 43 5d 60 3d b2 46 9d 3d
       0.08805875 -0.012632803 0.05477644 0.076795
000120 6f 8c 85 3d 68 fc 2e bc 94 93 a4 bc be f4 ce bc
       0.06520926 -0.0106802955 -0.020089902 -0.025263187
000130 9e 6f 97 3d cf f1 54 bc f4 18 9e bd fb 95 ff bc
       0.07394336 -0.012997105 -0.07719603 -0.031199446
000140 8e 3e b4 bd 7f 1b 9a bd be 37 62 bc 7c 52 4d bd
       -0.08800994 -0.07524776 -0.013807235 -0.05012749
000150 0b cc f7 bb 10 41 c5 bb 73 c8 d2 bc 4d 55 6f 3d
       -0.0075621656 -0.006019719 -0.025730347 0.05843096
000160 e1 e7 53 3d 4c 6e bc 3b 00 bd b0 3c 6e 7e 15 bd
       0.05173481 0.005750453 0.021574497 -0.036497526
000170 20 8d 54 bc 9f a7 81 bc 98 9b 12 3d 17 5e b4 3c
       -0.0129731 -0.015826998 0.035792917 0.022017522
000180 d3 74 01 bd 99 18 70 3d 32 6a 3d 3d 6b 78 7c 3c
       -0.031605553 0.05861721 0.046243854 0.015409569
000190 f3 54 62 bd 2d 26 7d bc ad 0d 9a 3d d3 3d e9 bc
       -0.055256795 -0.015450996 0.0752214 -0.028471863
0001a0 13 02 9c 3d 25 aa 51 bd 2d 44 88 bd c9 12 b9 bd
       0.07617583 -0.051187653 -0.066536285 -0.09036786
0001b0 76 fc 72 3d ab 10 1b 3d c5 7a d0 bc d8 90 33 3c
       0.059322797 0.037857693 -0.025449166 0.010959826
0001c0 c2 c2 91 bd 7d 39 50 bd ac a6 0d 3d 27 90 ac bd
       -0.07117225 -0.050836075 0.03458278 -0.084259324
0001d0 60 59 1f bd 4d cb 15 bd 31 ab b1 3d bf a8 62 bd
       -0.038903594 -0.036570836 0.0867523 -0.05533671
0001e0 a5 c8 0b 3c 8d 6f e2 3c a7 35 df 3c ed a0 16 3b
       0.008531724 0.027641082 0.027247263 0.0022984103
0001f0 53 0d 9b 3d b3 cf 14 bd 44 0d b4 3d b1 f1 84 3d
       0.07570901 -0.03633089 0.08791593 0.064914115
000200 f5 ea a9 3d dc b2 a7 bd fb a6 06 3d 11 ae 5d bd
       0.082967676 -0.081884116 0.03287409 -0.05412108
000210 5d 78 ea 3c ce 42 53 bc 79 c7 97 3c 59 f6 77 3b
       0.028621847 -0.012894345 0.018527733 0.0037836044
000220 7e b8 bd bc 55 1d 0d 3d dd 9d db 3d b7 f4 dc bc
       -0.023159262 0.0344518 0.107234694 -0.026972158
000230 af 11 80 bc ca 6d 93 bd 88 3d d4 3d ba 32 5f 3d
       -0.015633432 -0.07198675 0.10363299 0.054491736
000240 37 aa 74 bb 84 1b 65 3d 80 d3 98 bd 8c bd 0a bd
       -0.0037332901 0.055934444 -0.074622154 -0.033872172
000250 df 75 9b 3d 68 00 71 bd b7 e0 e9 bc 6e a7 ad 3d
       0.075908415 -0.058838278 -0.028549535 0.084792
000260 c3 96 06 3d 85 38 56 3d c7 62 8e bd b1 03 19 3d
       0.03285862 0.052299995 -0.06952434 0.037357036
000270 2b 2b 7c bd aa 8f b5 3c 22 75 31 bd ad d8 dd 3c
       -0.061564606 0.02216323 -0.043324597 0.027080858
000280 5f 2f 64 3d 06 8d 61 3c b8 1b 44 3d 70 af eb bc
       0.05570924 0.013766533 0.047877997 -0.028770179
000290 b6 b1 fb 3c f2 ba 37 bd e1 9c 6c 3d e5 c8 2f 3c
       0.030724388 -0.04485602 0.0577668 0.010729049
0002a0 8c 8b 77 bd 97 d5 06 3e 60 ee 23 3c 4a 6b 81 bd
       -0.060435817 0.13167416 0.0100055635 -0.06319292
0002b0 a2 71 3d 3d d4 e5 e9 3d 17 f7 33 bd 80 73 44 bd
       0.046250947 0.11420789 -0.043936815 -0.047961712
0002c0 d7 bc 0d 3d 0f 74 0e bd e7 de 93 bb 40 ee 99 3d
       0.03460392 -0.03477865 -0.004512656 0.07516146
0002d0 ca 39 9f 3c 0d 27 82 bd c9 89 1b bd c9 c1 94 bd
       0.019436736 -0.063551046 -0.0379732 -0.07263524
0002e0 02 97 82 bc eb 85 60 bd 98 3f 33 bc 9c 6a a8 bd
       -0.015941147 -0.054815214 -0.010940455 -0.08223459
0002f0 ef 1e cb 3d e7 4a 23 bc a4 f0 b5 3d 39 c8 78 3c
       0.099180095 -0.009966589 0.08883789 0.015184456
000300 7f 87 6f 3b de f5 11 bd e9 51 8e 3d 72 9c 8b bd
       0.0036549268 -0.035634868 0.06949217 -0.06816949
000310 81 4b 85 3d e1 37 a3 3c 5c 66 c2 b9 31 2a e5 3c
       0.06508542 0.019924106 -0.00037078827 0.02797422
000320 08 87 a8 bd 31 74 a3 3c 10 68 35 bc e4 f1 a1 3d
       -0.0822888 0.019952865 -0.011072174 0.07907465
000330 a6 be a4 3d 28 1d bd bd 51 64 96 bd 97 8d 2a bd
       0.08044176 -0.09234077 -0.073433526 -0.041638937
000340 8e e6 61 bb d0 47 a8 bd 44 4d 85 3d ef ab a1 3c
       -0.0034469697 -0.08216822 0.06508878 0.019735305
000350 e7 d1 2a 3d 27 cf 7b bd 21 3a ba 3d 23 58 4a bc
       0.041704085 -0.061476853 0.090931185 -0.012350115
000360 af da 46 bd 11 e5 9d 3c 08 9b 63 bd 8f 99 4f 3d
       -0.048548397 0.019274266 -0.05556777 0.050683554
000370 ab 5d 97 3d 62 a0 98 bc 08 e3 8e bc a6 e9 ce 3d
       0.073909126 -0.018631164 -0.017442241 0.10103159
000380 61 6e 1f be 11 eb c7 3d ac f9 24 3c ae b4 b4 bd
       -0.1556945 0.09761632 0.010069292 -0.088235244
000390 a9 cd e5 3d 9a 06 83 bc 0f 84 7a bc 24 49 8a bd
       0.11220867 -0.015994359 -0.015290274 -0.06752232
0003a0 5e 55 9f 3d 2f d1 99 bd 16 1f 9c 3d 45 2c 56 3c
       0.077799544 -0.07510602 0.07623117 0.013072078
0003b0 82 07 bb 3d 95 44 87 3d c3 14 f3 3d 79 09 ab 3d
       0.091322914 0.06604878 0.11869194 0.08351416
0003c0 85 1e 34 3d 1a f6 d7 bc e0 88 1c 3d af c5 c1 bc
       0.04397442 -0.026362468 0.03821647 -0.023653833
0003d0 bf 9e fd 3c 6e 28 a0 bd 28 69 87 3d f6 fb aa 3d
       0.030959485 -0.07820211 0.06611854 0.08348839
0003e0 35 28 e6 bd 3f 28 c0 3c 5e c2 c8 3d 19 7d 4d 3d
       -0.11238138 0.02345669 0.098026976 0.05016813
0003f0 dd c4 0f 3d ea 08 ce 3d 41 19 ae bd 12 18 3d bc
       0.035099853 0.10060294 -0.085009106 -0.011541383

actionNet.4.bias f4 [128]
000000 74 0f 55 bd 46 a5 4d 3d 6e c5 34 bd 7c 22 6e bd
       -0.05201669 0.050206445 -0.044133596 -0.058138356
000010 b3 39 8d bd c4 eb ce bc 70 4b ab bc 2a 33 b7 bc
       -0.06895771 -0.025258906 -0.020909995 -0.022363264
000020 6d 98 9a 3d 1b 9a d5 3d 49 ca bc 3c a5 ac 3e bd
       0.07548604 0.10429784 0.023045676 -0.046551365
000030 e0 f2 05 3d ec 34 97 3d 3b 01 13 3d dd 50 34 bc
       0.032702327 0.07383141 0.035889845 -0.011005607
000040 1c d8 90 3d eb ce 25 bd da 31 0f 3d eb c0 66 3d
       0.070724696 -0.040480535 0.03495965 0.056336325
000050 7d b9 9f 3d 1a c1 91 bd 9b 02 ca 3d 18 7f 9a 3d
       0.07799051 -0.07116909 0.09863778 0.075437725
000060 2e 93 45 bd c2 ef 7f bd 98 da 1e 3d e5 ba 99 bd
       -0.048236065 -0.06248451 0.038782686 -0.075063504
000070 69 e7 9a 3d f8 71 0b bd 67 90 b3 3d 0d 92 0e bc
       0.07563669 -0.034044236 0.08767777 -0.008701813
000080 1b ff 8c 3c 53 de 57 bd d1 dc d3 3c c8 8b 19 3d
       0.017211488 -0.05270226 0.02586213 0.03748682
000090 f7 43 bb bb 62 94 bf 3d 01 df 82 3d 10 48 02 3d
       -0.005714889 0.09354474 0.06390191 0.031807005
0000a0 8a 6b 25 3d 2f 67 24 3d 62 be 72 bd 6b c6 9f 3d
       0.04038576 0.040137466 -0.059263594 0.07801517
0000b0 e5 ed ec bc 28 66 ce 3d f5 f2 8d bc 12 46 5f 3d
       -0.02892203 0.100780785 -0.017327765 0.054510184
0000c0 e5 29 5c 3d 8c 38 6f 3d bb 06 0d bb 65 00 8d bd
       0.05375089 0.058403537 -0.0021518904 -0.06884841
0000d0 e0 06 5e 3d d2 52 cc 3c ce 30 a3 bb 4c d0 9e 3d
       0.054205775 0.024941836 -0.004980183 0.07754573
0000e0 75 78 39 3d 64 84 8f bd 1c cd d2 3d a5 6b 31 3d
       0.045280892 -0.070076734 0.10293028 0.04331555
0000f0 77 be 3c bc a8 f5 cf 3d b1 96 41 bb 55 ba 1f bd
       -0.01152002 0.10154277 -0.0029539282 -0.03899606
000100 bb 6f 53 3d 84 54 2a 3d 5b 6e f8 3c 03 35 7a bb
       0.051620226 0.041584507 0.03032606 -0.003817857
000110 64 55 ab bc 4c 2b 1b 3b c0 c1 79 3d b6 6b 01 3a
       -0.02091474 0.002367693 0.06097579 0.00049370097
000120 04 91 ed bc 87 d5 36 3d 18 3e 8b 3d 2c ce be 3d
       -0.028999813 0.04463723 0.06798953 0.09316668
000130 3d 49 56 bd 1e 95 4b bb 99 23 a9 3d c7 a0 ce 3d
       -0.05231594 -0.0031064223 0.08258743 0.100892596
000140 cd 1a 13 bd 35 13 88 bd 12 2f ba 3d c1 39 a6 3d
       -0.03591423 -0.066442885 0.09091009 0.081164844
000150 50 b9 3f bd 2f 1c 9a 3d e4 a9 d2 bc ae cf 94 3d
       -0.046807587 0.07524907 -0.025715776 0.07266174
000160 7c 1a f0 3c 29 96 ef bc 12 51 6c bd 17 56 1d 3c
       0.029309504 -0.029246407 -0.057694502 0.009603045
000170 e4 09 a5 bd bc 06 79 3d a1 4c 96 bd 7a ff 44 bd
       -0.08058527 0.060797438 -0.073388346 -0.048095204
000180 23 85 3f bd 66 4c 32 3c dc 45 8f 3d f0 ad ac 3d
       -0.04675783 0.010882473 0.069957465 0.084316134
000190 b8 78 b9 3d 8f 29 30 bd 8d 15 8b bc 2c 15 8f bc
       0.090562284 -0.043008383 -0.01697805 -0.01746615
0001a0 e5 d9 cd 3c 41 de 79 3c 3f f1 60 3d 63 7d 05 bd
       0.025128314 0.015250743 0.05491757 -0.03259028
0001b0 b8 06 dd bc 28 5f c0 bb 4d 41 57 3d 41 f4 9d 3c
       -0.026980743 -0.0058707185 0.05255251 0.019281508
0001c0 98 bb df 3c fe 98 02 3d b8 bf f8 3d 87 b8 26 bd
       0.027311131 0.031884186 0.121459424 -0.040703323
0001d0 97 fb 14 bd f4 8b 16 3d 6d c7 8b bd 3d 8c 38 bd
       -0.036372747 0.036754563 -0.06825147 -0.045055617
0001e0 13 aa b8 ba db 83 ca bc 6a 05 ab 3d 72 21 16 3d
       -0.0014088772 -0.024721077 0.08350642 0.03665299
0001f0 ad e1 4d bb 3c f7 42 bd 4f 6c d4 bc f5 e2 ae bd
       -0.003141503 -0.047599062 -0.025930552 -0.08539382

actionNet.6.weight f4 [80, 128]
000000 8e cb f6 bc 18 a7 06 be 31 50 87 3d b6 db 02 be
       -0.03012636 -0.13149679 0.06607092 -0.12779126
000010 18 5a 94 bd b6 89 ab bd 88 d2 ab bd c5 a1 a4 bd
       -0.072437465 -0.08375876 -0.08389765 -0.080386676
000020 67 10 45 3c 5f 2f df 3c cd 51 2b bd bd ac 00 be
       0.012027836 0.027244268 -0.04182606 -0.12565894
000030 0a 90 77 3d c8 bb 51 3d d3 72 af bd 53 87 98 bd
       0.0604401 0.051204473 -0.08566823 -0.07447686
000040 01 1f c8 3d 70 2e 95 3b 4f 98 30 3b cc 83 30 bd
       0.097715385 0.004552655 0.0026946252 -0.04309444
000050 85 e1 21 bd 19 f4 0c bc cd d2 81 bd 46 b1 b0 bc
       -0.039521713 -0.008603119 -0.06339035 -0.021568906
000060 60 f3 9e bd 34 b7 98 3d f7 f6 fa bd 85 80 0c bd
       -0.07761264 0.07456818 -0.12254136 -0.034302253
000070 0f 70 8d 3d ca 68 9a bd 16 cf a8 3d c9 bf 79 3d
       0.06906139 -0.07539518 0.082426235 0.060973916
000080 ce 2f 71 3d fb 68 c8 bb f9 e8 6b bd 00 7c a2 bd
       0.05888348 -0.0061160303 -0.057595227 -0.079338074
000090 c0 0c 90 3b a1 e9 ae bd f7 37 a7 bd e8 8b 89 3d
       0.004396051 -0.08540655 -0.08164971 0.06716138
0000a0 70 a1 21 3d 02 16 56 bd 92 d3 42 bd e5 df b7 bd
       0.0394606 -0.052267082 -0.04756505 -0.08978251
0000b0 a1 b8 51 bc 35 e4 39 bd a2 94 2f bd c5 ad 3f bc
       -0.012800367 -0.04538365 -0.042866357 -0.011699145
0000c0 0d 0e be 3c 12 9d 2f 3d 69 3f cf bc 5d 49 77 3c
       0.02320006 0.042874403 -0.025298791 0.015093175
0000d0 fa 38 2c 3d d5 68 7c bb 30 15 89 bd a7 e4 81 bd
       0.042046525 -0.0038514633 -0.06693494 -0.0634244
0000e0 1a 2a 1d 3c 17 05 a0 bc 1d 3e 71 bb 4b 89 52 3d
       0.009592557 -0.019533677 -0.0036810704 0.051400464
0000f0 72 1e 3d bd 04 2a 91 3d 60 4e 59 bc 35 77 c6 bb
       -0.046171613 0.07088092 -0.013263315 -0.006056691
000100 9f 28 44 bd 39 ee 1f 3d 24 51 98 3d ff cd cb bc
       -0.0478903 0.039045546 0.07437351 -0.0248785
000110 c2 a3 12 bd aa fb 8a 3d 60 df 29 3d 14 94 26 3d
       -0.035800703 0.06786282 0.041472793 0.040668562
000120 ea 84 20 3c e7 09 36 bd 07 61 1a 3c 68 8b 38 bd
       0.009797314 -0.044443037 0.009422547 -0.045054823
000130 47 5f da 3d 9a d4 25 3b ab a0 7d 3d 6f 78 e6 3c
       0.10662704 0.0025303722 0.061920803 0.0281336
000140 bd b5 e2 3c c9 ee 3a bd d7 2e c3 3c ba b1 20 bc
       0.02767455 -0.04563788 0.023826046 -0.009807998
000150 75 61 7f bd 3e dd e4 3c 96 43 cc bd 91 06 41 3d
       -0.0623488 0.027937528 -0.099738285 0.047125403
000160 c3 df cf bc 2e fd 13 3d 7c e0 47 bd e4 57 a1 bd
       -0.025375253 0.036130123 -0.04879807 -0.07878092
000170 94 15 1e bc 51 72 d9 bc 33 41 ed bb 7c 4a c9 bd
       -0.009648699 -0.026543768 -0.0072404384 -0.0982866
000180 f1 7a 08 3d bb 7d d0 3c a8 97 9c 3c a5 6d 18 3d
       0.03332037 0.025450578 0.019115284 0.03721394
000190 e4 9b f8 bc a5 83 54 bd 9c a1 e2 bc 19 63 b8 bd
       -0.030347772 -0.05188336 -0.027664952 -0.090032764
0001a0 7d 40 4b 3d 92 70 71 3d 7b 88 4f 3b aa 86 2d 3c
       0.049622048 0.058945246 0.0031667042 0.010591188
0001b0 e6 19 db 3d da f2 0e 3c 0e ac 89 bd 3d 57 34 3d
       0.10698299 0.0087248925 -0.0672227 0.04402851
0001c0 ab 97 53 bc 6e ba 94 3d 5c 64 9f bb fb 96 92 bd
       -0.012914578 0.07262121 -0.0048642587 -0.071577035
0001d0 16 e4 7f bd ba d1 1d bd 43 be b2 bd 97 5e a4 bc
       -0.06247338 -0.03853009 -0.08727696 -0.020064635
0001e0 97 65 72 3d db b8 18 3d ed e3 1a bd e9 5a ad bd
       0.059178915 0.037285667 -0.037815023 -0.08464605
0001f0 21 4e 7c 3d 76 61 1f 3c 3d ae 23 3d ba 6a 16 bd
       0.061597947 0.009727826 0.03996109 -0.036722876
000200 64 8f 94 3d fb f9 0c bd 6b cf 46 3d 62 19 3c bd
       0.07253912 -0.034418087 0.048537653 -0.045922644
000210 c1 d3 c2 3d 45 b6 bf 3d ba a6 71 bc f0 50 f4 3b
       0.09513045 0.09360937 -0.014749223 0.0074559376
000220 70 a8 cb 3a 4e 00 41 3c 66 af 19 be b0 2a 39 bd
       0.0015537869 0.011779858 -0.15008315 -0.045206726
000230 36 65 13 bc aa f7 e0 3c 9c 46 5e 3c 58 73 79 bd
       -0.008996299 0.027461845 0.013566639 -0.060901016
000240 5b 9b 67 3d 29 b0 69 3d 98 b6 14 3d 29 7d bb 3d
       0.056544643 0.057052765 0.036306947 0.09154732
000250 dc 4d ad 3d 89 1e f1 3d 3a e2 91 bd a0 36 67 bd
       0.08462116 0.11773402 -0.071232274 -0.05644858
000260 69 81 e8 bd 25 11 7f 3c 3e bb 39 3d f2 75 c1 bc
       -0.11352808 0.015568052 0.045344584 -0.023615811
000270 8a de a2 3d 61 fb 76 bc ca 67 1e bc 58 28 03 3c
       0.07952602 -0.015074582 -0.0096683 0.008005224
000280 1e c3 56 bb 31 88 93 bb 69 38 65 3d d5 27 ca bc
       -0.0032770108 -0.0045023193 0.055962 -0.024677197
000290 af 3e e1 bc 0c ba 14 3c b8 35 54 bd 44 a0 7d 3c
       -0.02749571 0.00907756 -0.051809043 0.015480105
0002a0 06 e6 c0 bc a0 7e a3 ba d2 99 bd bd 7b e8 ae bc
       -0.023547184 -0.001247365 -0.092578545 -0.02135109
0002b0 7d 3d e9 3c 85 93 54 3d 62 4d 94 bd 63 60 74 be
       0.028471703 0.051898498 -0.07241322 -0.23864894
0002c0 ab 78 cf bb ba 59 6a 3d 07 7d 00 3d d6 f0 ff bb
       -0.0063315234 0.057214476 0.031369235 -0.0078106923
0002d0 e8 9f a0 bc 2f de bb bc c9 d2 f3 3a e3 72 ca bd
       -0.0196075 -0.022933094 0.0018602248 -0.09885194
0002e0 f2 a4 ed 3c b0 2b b4 bd dc 1e 90 3d db f7 5a bd
       0.029009316 -0.08797395 0.07037136 -0.05345903
0002f0 79 84 79 3c c2 70 03 bd 29 a1 81 bd a5 4f 1b 3d
       0.015229338 -0.032089956 -0.06329567 0.03791775
000300 d1 5f 96 bd 70 72 36 bd 9f e0 73 bd 17 21 9d bc
       -0.07342494 -0.04454273 -0.059540387 -0.019180818
000310 3f ce 14 be 2a ba e5 3c 3e e1 62 3d f7 99 c8 3d
       -0.14531802 0.028042872 0.05539059 0.097949915
000320 c7 ff 18 3e 37 b2 b7 bc cd c3 8e bc ea 7a 21 bd
       0.14941321 -0.022423847 -0.01742735 -0.03942386
000330 d1 95 4e 3d 8c 65 1e 3d 76 2b ac 3d d7 4b 08 be
       0.050435845 0.03867106 0.08406727 -0.1331018
000340 b0 af 1d 3d a9 75 12 3e ba e8 b2 bd f7 fb 8a 39
       0.038497627 0.14302696 -0.08735795 0.0002650914
000350 5b 90 ab bc 25 b4 17 bd 8c d5 23 be 7b de e1 3c
       -0.020942857 -0.037037034 -0.1599943 0.027571907
000360 92 b0 db 3d fa a0 05 bc b8 f4 30 3c cf 33 4e be
       0.107270375 -0.008156056 0.010800533 -0.20136951
000370 08 3a 8e 3d b8 da bd 3c 2b cd ab bd 05 8e 43 bd
       0.06944662 0.023175582 -0.08388742 -0.047742862
000380 13 71 b2 3d 55 59 b6 bd c5 bd af bc 08 c8 87 bc
       0.087129734 -0.089037575 -0.021452794 -0.016574875
000390 66 dd 03 3e cc 70 7a bc 42 09 8e 3d 2c 44 b6 bb
       0.12877426 -0.015285682 0.069353595 -0.005562326
0003a0 01 74 87 bd 09 b2 da bd 0a f0 6f 3b d0 97 7e bd
       -0.06613923 -0.10678489 0.003661158 -0.0621565
0003b0 7f 93 26 3d bb f5 cc bc a9 a9 c1 3d 74 70 86 bd
       0.040668007 -0.025019517 0.09456188 -0.065644175
0003c0 00 32 24 3c e8 4e eb 3c ca 34 8f 3d 9c 9e dd bd
       0.010021687 0.028724149 0.069924906 -0.10821268
0003d0 14 5f 9b bd b1 75 15 3e c5 9f 4f 3d 42 6a a7 bd
       -0.07586494 0.14595677 0.050689477 -0.08174564
0003e0 a7 8d c9 3c 25 bc 9c bd 09 9b a8 bd 41 29 28 3a
       0.024603678 -0.07653073 -0.082326956 0.0006414839
0003f0 e5 55 5b bd af 63 da 3d 41 6e ae bb 2c f3 4b bd
       -0.053548712 0.106635444 -0.005323202 -0.049792454

actionNet.6.bias f4 [80]
000000 74 0f 37 3d 60 c0 72 bd f1 c9 e8 3d 09 fd 4a bd
       0.04469247 -0.059265494 0.11366642 -0.04955772
000010 69 0d 79 bd 15 8f 2a bd 07 3c 72 bb 37 37 a0 3d
       -0.060803805 -0.04164036 -0.0036962049 0.078230314
000020 b8 b2 a3 3d bf 2c 6f 3c 6d 3d 32 3d 74 57 03 bd
       0.07993072 0.014598071 0.04351561 -0.032065824
000030 68 78 0a 3d 22 3e a3 bd 13 17 5e 3b 7c 68 8d 3d
       0.033806235 -0.07970835 0.0033888265 0.069046944
000040 60 23 b2 3d bb b4 3b bc b3 bf 91 3c 10 db a6 3d
       0.086981535 -0.011456664 0.017791605 0.081472516
000050 7f a7 cf 3d 8f a8 68 3d 40 52 3f 3c 0a c4 7f bc
       0.10139369 0.056801375 0.011677325 -0.015610704
000060 19 60 1f bd 4c 49 ba 3d f9 8a 53 bd 97 0d 6b 3d
       -0.038910005 0.090960115 -0.051646207 0.057386007
000070 16 56 88 bc f1 a9 98 3d 03 1c 92 bc f5 03 14 3c
       -0.016642611 0.07454289 -0.017835623 0.009034147
000080 cd cf 8a 3a 29 b0 a5 3d 37 fa fc 3d 85 cc 9a bb
       0.0010590494 0.080902405 0.12352412 -0.0047240877
000090 4f d6 2f bd 04 6e 71 bd 1f b3 17 3b 22 56 2d bd
       -0.04292899 -0.05894281 0.0023147536 -0.04231847
0000a0 c3 d1 24 bd 71 c8 96 bd a8 bd 4f 3d eb 5e 5b bd
       -0.040239107 -0.0736245 0.05071798 -0.053557318
0000b0 a8 c8 57 bb 5e ba ca 3d 88 3c 05 3d 92 eb 8b 3c
       -0.0032925997 0.09898828 0.03252843 0.017080102
0000c0 87 f7 18 3d 31 a2 7b bd 26 5f 82 bd b7 f3 80 bd
       0.037345435 -0.061433975 -0.063658044 -0.06296485
0000d0 31 9c 2d 3d e7 a2 c7 3d 56 df d7 bc 79 8e 20 bd
       0.042385284 0.09747868 -0.026351612 -0.039198373
0000e0 0c 7e cf bc 8e 79 dd 3c 13 30 df 3b 46 bf 52 bd
       -0.025328659 0.0270355 0.006811151 -0.051451944
0000f0 f2 cd a7 3d 93 e3 ec ba 6d d9 8d bd 17 87 e9 bc
       0.08193578 -0.0018073193 -0.06926236 -0.028506799
000100 7c 3c 9d bd 16 5e fc bc 55 8a a2 bc bd 7e 98 3d
       -0.07677552 -0.030806582 -0.019841352 0.074460484
000110 a5 77 d5 3c ce 3e 0d 3c ce 66 6d 3d e1 28 d3 bc
       0.026058028 0.008620931 0.05795937 -0.025776329
000120 18 2e 70 3d ba e3 2d bd 46 93 96 3d ba e8 6e 3a
       0.05863771 -0.042453505 0.07352309 0.00091136585
000130 c9 c1 ed 3d cf 29 a7 3d 0e 07 a6 3d 04 41 68 3d
       0.11609227 0.08162271 0.08106814 0.05670263
