config/saves/training_weights/simple_spread/ddpg_weights/TargetactorWeights.pth (torch, 656196 bytes, 8 tensors)

actionNet.0.weight f4 [256, 403]
00000000: 4372 f93b 467e 10bd 764b 2c3c f92a 403c
00000010: 0290 da3b 8dae 9fbc dcd6 0bbc 6005 b03c
00000020: 5166 43bd 9194 4dbd 034d fabc 16bc 20bd
00000030: f7fd a13c fe38 113d e000 b7bc d8ee 3c3d
00000040: 9707 a33c 6f6d 3a3c b6d9 a63c 3992 4d3d
00000050: cae1 59bc 266e 27bd 222b e3bc 3560 1b3d
00000060: 030f 63bb 7cea 023d c565 12bd 1447 0ebd
00000070: ec9d 82bc ad3e 95bc 15d2 14bc 9db8 8fbc
00000080: 49fb 423d 743b 85bb b63a 1bbd 2cf0 063d
00000090: e10b 4abc 4d84 8c3c 1e59 213d 6ca8 fa3c
000000a0: b7ea 38bd 391e d8bc 15de 12bd c587 843c
000000b0: 20bc 4f3d c695 233c 5fbb b33b 64bc 82bc
000000c0: 5e16 293d 62e9 6ebc 147d 05bd 8dfe 81bc
000000d0: b67d ad3c fbcf e3bc 6c76 7a3c 7651 2bbc
000000e0: 882e 483c f63c a4b9 74f4 fb3c fd9a 89bc
000000f0: 3dcb 1b3d 1879 403d 5b07 6dbc 7fb2 353d
00000100: ce05 1fbd 985d 36bd 43c7 efbb cdff 86bc
00000110: 9ee8 20bd 6ed6 9cbc cd81 1b3d 2dab 853c
00000120: 2557 16bb e8f4 b5bc 9116 49bd 7463 0f3d
00000130: 626c 553c b9cf 49bd 63e9 ee3c 6851 313d
00000140: 661d 10bd ebc2 673d 6c23 0c3d 17e5 aeba
00000150: 3632 92bb a42e f1bb ccc0 843c dcba 7fbc
00000160: fa62 58bd 00f0 b1bb f44f f3bb 0264 d9bb
00000170: 599f 43bd 5484 893c 2663 2d3d b916 d33c
00000180: 6987 41bc e7a4 21bd 9d16 113c 06f4 253d
00000190: 2f34 b63c 357a 1f3d eff4 b23b 9b8d 793c
000001a0: 2d01 193d 3210 ee3c 8d31 9f3a a0ba 30bd
000001b0: 8020 c53c 0864 bdba b6c0 263d 8310 e9bb
000001c0: 566e 95bb c6f2 a03b 7639 96bc c891 c53c
000001d0: 1e1e 96bc c6af a73b fd83 113d 306e 3dbd
000001e0: f056 dd3b bd16 05bd f121 513b 5f66 24bd
000001f0: fb85 67bd 32fc 683c c508 153d 435d 703b
00000200: 324e d3bc d419 083d ba69 5abd 8925 d63c
00000210: 6e6a ae3c 0856 37bd f836 3ebd c690 283d
00000220: 24ea f1bb 4c46 0e3d 4a3a 5ebc f595 113d
00000230: 559f 913c b863 423c e675 ad3c 2fd4 2cbd
00000240: efe0 2dbc 2c3e 7abb 58ae 34bd cb08 f93c
00000250: 1b55 f83c 7787 22bc 8c3d 843c c1c0 d53a
00000260: a60a 293d 23cf e9bc 9f15 3f3c b026 cb3c
00000270: b5a8 913c 1704 2ebd 9660 293d 08af 3dbd
00000280: 1190 d43c 2b84 e6bb 2b9e 6abc 8b34 e0bc
00000290: f196 cabc 6640 1fbd 0f97 be3c 95c7 1c3d
000002a0: d985 c1bc fde1 123c 2a38 623c dc9e 0c3c
000002b0: f97c dc3b 0103 4c3c 2407 02bd 463a 133d
000002c0: ed88 92bc ac04 f53b 80e3 31bb 5752 22bc
000002d0: 8337 ef3c 541b f53c 777f 34bd f7d4 2c3c
000002e0: 3560 9bbb 617a dbbc 0862 35bd 5518 9bbc
000002f0: 275a 3bbd 6884 cebc e581 12bb 626b 6abc
00000300: 2ae4 d63c f5bd 023d ab4b 7e3c 8b73 fb3c
00000310: ffa0 3abd 5c81 fa3b 8d7d 0abd 4ec5 2fbc
00000320: abbb 63bc 23a8 fc3c fce4 053d 5edb 9d3c
00000330: 2148 da3c 24a9 803b a74a afbc c190 c4bc
00000340: 1809 42bd aba6 f33c 51c1 513c 18d3 31bc
00000350: 2a5a edbc 9caf 84bc 90c3 c1bc 9c19 843c
00000360: f40d 7ebb 6571 9bbb cebb 223d eedc 1dbd
00000370: 5805 b33c c2e6 d73b 450e 12bd ef4f 283d
00000380: f0cd c5bb d4e7 07bd 9dc9 88bc 3fd8 363c
00000390: 7b4d ff3c 5ebc 1ebd 8d36 9abb 64bf f53c
000003a0: 3e99 1b3d ccb5 0a3d 587b c93a ab9b f93c
000003b0: f1a9 4b3c 10a8 373d e071 393d 775f 31bd
000003c0: b10a d8ba f938 c63b b4f0 85bc d24c 5a3d
000003d0: e591 073c 873d 203d 345c f23c fee2 163d
000003e0: 3f5d 253d 939f 603b f225 e1bb 7014 b43c
000003f0: 2c09 87bb d1ac 4a3d e381 e039 8627 133c
0.007612498 -0.035276674 0.010516038 0.0117289955 0.006669999 -0.019492412 -0.008535113 0.021486938
-0.047705 -0.050190512 -0.0305543 -0.039241873 0.01977442 0.035454743 -0.022339284 0.046126217
0.01990108 0.01137863 0.020367485 0.050188277 -0.013298461 -0.04087653 -0.027730528 0.037933547
-0.00346464 0.031961903 -0.035741586 -0.034735754 -0.015944444 -0.018218363 -0.009083291 -0.017544085
0.047602925 -0.0040659253 -0.037897788 0.03294389 -0.012331934 0.01715293 0.03939163 0.030597888
-0.045145717 -0.026381599 -0.035856325 0.016178021 0.05071652 0.009984439 0.005484983 -0.015958972
0.041281097 -0.01458201 -0.032589987 -0.01586845 0.021178108 -0.027809134 0.015287023 -0.0104564335
0.012218125 -0.00031325937 0.030756213 -0.016797537 0.03803562 0.046990484 -0.014467086 0.04435968
-0.038823895 -0.04452285 -0.007317455 -0.016479397 -0.03928434 -0.019145217 0.037965585 0.016316975
-0.0022940126 -0.022211507 -0.049093787 0.035006955 0.013026329 -0.049270365 0.029164022 0.043290526
-0.035184287 0.056582373 0.03421347 -0.001334342 -0.004461552 -0.0073602963 0.016205214 -0.015608516
-0.052828766 -0.0054302216 -0.0074253026 -0.0066342363 -0.047759388 0.016786732 0.042330883 0.025767671
-0.011812069 -0.039463904 0.008855489 0.040515922 0.02224168 0.038934905 0.0054613273 0.015231515
0.037354637 0.029060457 0.0012145505 -0.04314673 0.024063349 -0.0014449367 0.040711127 -0.007112564
-0.004560272 0.0049117533 -0.018337946 0.024117365 -0.018324908 0.0051173894 0.035526264 -0.04624766
0.0067547485 -0.032492388 0.00319111 -0.04013669 -0.056524258 0.014220284 0.036385316 0.0036676682
-0.025794122 0.033227757 -0.053323485 0.026140945 0.021290984 -0.04475978 -0.04643914 0.04115369
-0.007382648 0.03473501 -0.013563702 0.0355434 0.01777617 0.011864595 0.021174382 -0.04219454
-0.01061271 -0.003818403 -0.04411158 0.0303997 0.030314019 -0.009919993 0.01614263 0.0016308055
0.04126992 -0.028541153 0.01166287 0.024798721 0.017780641 -0.04248437 0.041351877 -0.0463095
0.025947602 -0.0070347986 -0.014319937 -0.027368804 -0.024730178 -0.038879775 0.02326539 0.038276274
-0.023623394 0.008965013 0.013807336 0.008582797 0.006728765 0.012451888 -0.03174509 0.035944246
-0.017887557 0.0074773636 -0.0027143657 -0.009907327 0.029201275 0.029920258 -0.044066872 0.010548822
-0.0047416934 -0.026791753 -0.044282943 -0.0189325 -0.045740273 -0.02520962 -0.0022355255 -0.014307829
0.026231844 0.03191944 0.01552097 0.030694744 -0.045563694 0.0076448154 -0.03381114 -0.010728193
-0.013899724 0.030841893 0.03268908 0.019269641 0.026645722 0.003926413 -0.021397902 -0.023994805
-0.047371954 0.02974256 0.012802438 -0.010853551 -0.028973658 -0.016197018 -0.023652822 0.016125493
-0.003876564 -0.0047437423 0.039729886 -0.038540773 0.021853134 0.006588788 -0.03565814 0.041091856
-0.0060365126 -0.033180073 -0.0166977 0.0111599555 0.031164875 -0.03875386 -0.00470621 0.029998489
0.03798794 0.03386478 0.0015371842 0.030469736 0.012430654 0.04483801 0.045274615 -0.043303933
-0.0016482678 0.006049272 -0.016350128 0.053295918 0.00827453 0.039121177 0.029584982 0.03683757
0.04037213 0.00342748 -0.0068709785 0.021982402 -0.0041209664 0.049481217 0.00042821383 0.008981591

actionNet.0.bias f4 [256]
00000000: ed58 01bd e77a cb3c b0f0 3abd 97a9 afbc
00000010: ef7a a5bc 4022 cc3c 6d9b 113d 3f5f adbc
00000020: bea4 b4bb 0cbf fdbd 71dc 853d 0135 ccbd
00000030: f8eb 3dbd 45d0 953c f957 de3c d6d5 8d3d
00000040: 65de 223d 6b13 0cbd 8b09 1fbd edf2 adbb
00000050: e823 1a3a 1ab9 5fbd f27a 57bd 9757 79bc
00000060: 97d2 afbd 2f72 a93d 4eb2 08bc 7ccc 8bbd
00000070: 0942 4bbd 86b6 90bd e034 bfbc 9a1f ea3b
00000080: f519 153c fdd1 04bc 3933 dfbc 6506 183d
00000090: 5643 18be 4b0a e6bc 4a30 f43d ae39 9abd
000000a0: 9e0c 9bbd 3584 db3c 9f55 acbd b64b 83bc
000000b0: 312b 46bd 058d 133c ada6 0cbd 4829 d4bc
000000c0: df84 87bc 1812 e7bb f802 55bd 52fb d8bc
000000d0: 7236 58bd bde8 893d 8537 df3b f792 a23c
000000e0: b8f1 64bb ea9a 3c3d b382 52bd d368 f03c
000000f0: 0d76 1e3d 6de4 5d3d 15ad 8fbc c4ee 09bd
00000100: 242d 61bc 82df d3bc 5532 c8bc 3cab 0abd
00000110: 39a9 45bd a98b 17bd f626 97bd f84c e93c
00000120: c002 cb3b bdc7 8dbd e687 d9bb c5a6 83bc
00000130: c537 09bd 0e44 c1bd b775 f83c 4e96 8bbd
00000140: 38d2 22ba 2e83 94bd fdb2 96bc 1a89 3dbd
00000150: ad15 87bd 0464 9a3d f937 cf3c 6c0c fbbb
00000160: e43e a93d 56f7 1e3b 7306 00bd 8cd8 21bd
00000170: 134d 993d 88d2 eabc a154 c1bc 5d5d 9a3c
00000180: c51f 8b3b 1cf7 f6bd 4a8e 3a3d 49e8 c1bc
00000190: 553f 08be 3652 2e3c a16a cebd 6e40 1cbd
000001a0: c779 81bd 0f5a 97bc 8087 38bd 692d 503c
000001b0: 276b 00bd ec14 ea3a bd46 363d 7669 9f3c
000001c0: f7cb a1bd c5ae 8abc 7224 5bbd 8675 a03c
000001d0: b33a b13c c701 2bbd 6c15 863a 2cf3 58bd
000001e0: 559c 1e3d d3cc df3a 1138 743d 0b3f 143d
000001f0: 9099 a23c e78b 3d3c 5f82 303d aac0 1dbd
00000200: b447 163d 667c 15bb 0ea4 9d3b 43a2 8abd
00000210: 8ec4 13bb 3bdf 3abc ab32 65bc ac5d fbbb
00000220: b2e1 d9bc c398 293c 635c e0bd 6e6c 9dbd
00000230: 777e b03b e90b 30bc e592 8bbd 6d48 423d
00000240: c1ab d63c 28df 2b3d 722a a3bc fbe2 64bd
00000250: 51c1 78bd b6a4 b53c 868b 13bd 1e0b 893d
00000260: 7573 84bd 77a6 81bd d00a 8f3d 3dfd b83d
00000270: 5884 6dbc dcd1 abbd 3686 103c 33c3 65bd
00000280: 01cf c3bd c436 853c 3b0a 9bbc fafe 57b9
00000290: ae64 3f3d 8525 b6bc a42e c1bc 18b4 7dbd
000002a0: d7a2 b83c a529 553b 538a 0c3d 0b34 e13b
000002b0: 7670 11bd 40bc 263c 6194 3dbd 861c 19bd
000002c0: e8f3 ca3c 0e96 64bb 93a7 e7bd a28b 55bd
000002d0: a1db 5c3d f68d b6bc 8fc3 28bb 0f45 22bd
000002e0: 9345 7e3d 2487 5bbc f0cb 3dbd cf18 60bc
000002f0: 6760 4ebd 978a 0f3d f63b d83c 8be5 e8bc
00000300: c414 fabd 16a1 ecbc 2f65 1abd 8016 013d
00000310: 8ad4 56bc 2b44 d63c 3636 223c beed 05bd
00000320: 93fa 97bd eb60 973c 8216 a0bc 9d54 73bb
00000330: a735 9a3c 098e cfbb eff6 ba3c 2914 833c
00000340: cc64 b23b bf64 1dbd 6c43 0f3c 51ad 4cbc
00000350: b331 433d 5383 ecbc e02d 1a3d b79e b43c
00000360: 3192 d03c 2a93 ca3d c724 1ebd 649d 833a
00000370: a53f 76bb 8cac 21bd 403d 593d be73 1bbe
00000380: baea 51bd 8a21 1cbc 175c 1abd 3e61 043d
00000390: d76a b93b b6fd 55bd 0fcb 2abd 4b37 4d3c
000003a0: 1f22 26bd 257f 07be 69c6 23bd 481d 543c
000003b0: bf87 543c fec2 ac3c 3fb3 d53d 3496 a3bc
000003c0: d8e7 86bc e203 073d 8ae3 043d 3015 b7bc
000003d0: 9b08 e9bc 2688 cd3c 1a7e 2a3d a724 013e
000003e0: ffa5 1bbd 313c dc3d 5d6c 2f3d 3566 81bd
000003f0: 29fc 513d ac34 063c 9c11 2a3c ad07 b13e
-0.031578947 0.024838878 -0.045639694 -0.021443171 -0.02020022 0.024918675 0.035548616 -0.021163581
-0.005512803 -0.12389955 0.065361865 -0.09971047 -0.046367615 0.018287787 0.027141558 0.069255516
0.039762873 -0.034198206 -0.03882746 -0.0053085 0.0005879984 -0.054619886 -0.052607484 -0.015218637
-0.08585089 0.08273732 -0.008343292 -0.06826112 -0.049623523 -0.070660636 -0.023340642 0.0071448805
0.009100427 -0.008106706 -0.027246105 0.037115473 -0.14869437 -0.02808108 0.11923273 -0.07530533
-0.07570766 0.02679644 -0.084147684 -0.016027313 -0.048381034 0.00900579 -0.034338642 -0.02589859
-0.01654285 -0.0070517175 -0.052004784 -0.026487026 -0.052786298 0.067338444 0.0068120384 0.019845469
-0.0034934115 0.046046175 -0.051394176 0.02934686 0.0386868 0.054172922 -0.017538587 -0.03367497
-0.0137436725 -0.025863413 -0.024438063 -0.033854708 -0.048257086 -0.036998425 -0.07380478 0.028479084
0.006195396 -0.06922863 -0.006638515 -0.016070733 -0.03350045 -0.094368085 0.030329568 -0.06815778
-0.00062111346 -0.07251583 -0.018395895 -0.04627333 -0.06595931 0.07538608 0.025295245 -0.007661393
0.082639486 0.002425631 -0.03125615 -0.039513156 0.07485404 -0.028664842 -0.023599925 0.018843347
0.0042457306 -0.12058851 0.045545854 -0.023670333 -0.13305409 0.010639718 -0.100789316 -0.038147382
-0.06322055 -0.01847556 -0.045051098 0.012706139 -0.03135219 0.0017859018 0.044501055 0.019459467
-0.07900231 -0.01692904 -0.053501554 0.01958729 0.021634435 -0.041749742 0.0010229773 -0.05296628
0.03872331 0.0017074592 0.05962378 0.036192935 0.019848615 0.011569 0.04309308 -0.038513817
0.036689475 -0.0022809743 0.0048108166 -0.0676923 -0.0022547576 -0.011405761 -0.013989131 -0.0076710787
-0.026596878 0.010351363 -0.10955121 -0.07686697 0.0053861695 -0.010745027 -0.06815127 0.04743235
0.026204946 0.041960865 -0.0199177 -0.055880528 -0.060731236 0.022173267 -0.03602173 0.066915736
-0.06467334 -0.06330579 0.06984484 0.09032676 -0.014496885 -0.08389637 0.008821061 -0.05609436
-0.09560967 0.016261466 -0.018925777 -0.00020598984 0.046726875 -0.022234688 -0.02358181 -0.06193933
0.022538586 0.0032526043 0.034311604 0.006872659 -0.03550764 0.010176718 -0.046284083 -0.037380718
0.024774507 -0.0034879479 -0.11311259 -0.052135117 0.053920392 -0.02228449 -0.0025751328 -0.03961664
0.06207807 -0.013398919 -0.046337068 -0.01367779 -0.050384905 0.03504428 0.02639578 -0.028429767
-0.12210992 -0.028885406 -0.037694152 0.0315156 -0.013112197 0.026155552 0.00990062 -0.03269743
-0.0742084 0.018478831 -0.019541983 -0.003712929 0.018824412 -0.0063340706 0.022822825 0.016000824
0.005444145 -0.038426157 0.008744102 -0.012492494 0.04765482 -0.028871214 0.037641406 0.022048337
0.025460334 0.098913506 -0.038609292 0.0010041413 -0.0037574556 -0.039471194 0.05303693 -0.15180871
-0.051249243 -0.009529481 -0.03768548 0.0323193 0.0056584883 -0.05224391 -0.041697558 0.01252539
-0.040559884 -0.13232096 -0.03998414 0.012946434 0.0129718175 0.021089073 0.10434579 -0.019969083
-0.016467974 0.032962687 0.03244356 -0.02234897 -0.028446486 0.025089335 0.041624166 0.12611638
-0.038000103 0.10753668 0.042827953 -0.063183226 0.05126587 0.008191269 0.010380175 0.3457617

actionNet.2.weight f4 [128, 256]
00000000: 3ff5 2dbc ab2b 00bf ec93 0cbd aa99 49be
00000010: 8703 32be a50d 03bd 3ad8 6b3d fe83 113f
00000020: ccca ccbd 45d2 023e 237c a3bd 2611 aa3d
00000030: 8d6c 91bc 5577 1fbf c457 0c3a 4176 293e
00000040: 003f 5bbe c7b8 adbd b787 b6be b703 18bf
00000050: 5110 edbd 4d4f 193f a2a5 593d b675 fdbd
00000060: eb4b 7fbe c84c 9a3d f72a 2dbd 04c5 993e
00000070: 3fd4 26bd b5c8 94be 390a 533d 4eff 84be
00000080: c5f1 83be 6d45 973c 0f6b 65be 62e9 553d
00000090: 6832 4b3e f64e a1be 7947 dfbd 0861 4a3e
000000a0: 5fdf adbe 2af2 1e3d 8d9e 913e 11ff a03e
000000b0: 195f 8a3e e919 d4bd 3290 61be 18f7 9e3e
000000c0: 6a80 013f dbfa ecbe 0c3b 9f3e 758d 083d
000000d0: 41bc 5c3f 07e5 8bbe f993 fbbc a237 34be
000000e0: 0947 f83d ba7d c0bc 5098 5ebf 20f8 523e
000000f0: 954a 03bd 7a2b 923c e5a9 af3d 7cfc 583d
00000100: c841 b7be c96b c33d a2f6 643e 3acf b0be
00000110: eed4 2f3d f9b7 f2be 7c09 02bd ebdd f7bd
00000120: 758f 10bd 6485 873d f999 d0be 3542 873c
00000130: 56f5 a43c 6bf8 413d b53a adbd ed02 c23e
00000140: 6bb0 80be b2fc 6a3e 8cc6 d4bc 54cf 1bbf
00000150: 5d18 98be 155d cabe 996f a13e 72ea 533d
00000160: de33 443e dd7f d43d 0263 6e3d 9b29 983e
00000170: 1a92 b0bd 6089 333e 3043 013d 8522 6dbd
00000180: 954a f0be 31b2 533e ee2f 08bf 2d05 103e
00000190: e454 8dbd 2539 1bbd d05f c2be fb7e 643d
000001a0: d0aa 3e3c a04b 373e 3285 673d 67d0 2039
000001b0: a836 bebe c948 d23e b3c4 11bf 0b19 ee3d
000001c0: 1709 293e 5ec3 213f 31b5 5f3f 90b3 96be
000001d0: debc 7bbd d4a4 75be a737 2e39 46b8 083f
000001e0: c050 1d3c e700 67bb 395d 0c3f faf9 13bd
000001f0: 5c4b ebbd d7bf d3be 605c c7bc ce02 cb3e
00000200: 551d 02be 4cec acbc 78b8 28be f4c0 20be
00000210: c6ed 25bd aebc a6ba 981e 4d3f 98f8 b13c
00000220: ce92 14bf 864d 153d 2103 d93d bd3b 9c3e
00000230: 76a8 903c 4613 e6bd 37f2 243e 6e22 3dbc
00000240: 8680 2a3e e490 983e 5932 b6be 65b6 1cbd
00000250: 3808 6cbe daaf c9be d4de d9bc bdc6 2cbe
00000260: 932f e23e 7598 90be be11 36be 91dc 2abe
00000270: b657 de3e c87c a4bd d5e4 8abe e935 c03c
00000280: 6412 fdbd f905 c2bc 237b 503e 0cb0 75bd
00000290: 93dc 67be 8157 493c 5c7b 3c3d 1337 703e
000002a0: cf27 aabd 64d3 0dbf 6f4d 2dbf 8974 243e
000002b0: 89d6 de3c 011e bb3d 005f 583f 603a 3c3c
000002c0: 0ab9 653d 1d1c c8be 54ae 023e b409 86ba
000002d0: e3f7 f43d 9dd6 093d 2a35 ef3c 4875 4c3d
000002e0: fb4a 183d cfee 823e 918c 46be 8c08 023e
000002f0: 29c1 28bf 6c30 8e3d 2aa0 9d3d 4408 cd3c
00000300: 5cf0 0dbf 68be ec3e 297f d9be 159a 3e3d
00000310: a226 6abd cca9 1ebe d0fa da3b 578a e2be
00000320: 1902 d83d 15a8 a1be 7704 3cbf 48ca d6bd
00000330: c825 c23d 47f0 2f3d a8c7 33bc 94b0 26bf
00000340: 1e30 a93e a2fb 9c3e 0860 c6bd 1a97 5c3d
00000350: 3be5 aebe 73a3 e3be a4fb 713e 8dcd 1ebd
00000360: b690 2ebc 5360 1cbf 5c7d acbc 7e1e a43e
00000370: 8bb3 cd3e 7a09 2cbe 0881 b13d b56b 97be
00000380: a1a2 4d3e cb9b 02bf 433d 343e 68b6 8b3d
00000390: fa4e d33c e0d6 c8bd c4ff 723e 6c08 80be
000003a0: 6151 cd3c b65e 2e3f 95f1 c23e 6c34 343f
000003b0: eda9 e9be 804b e0bb eeab 03be 8010 62be
000003c0: ea6a 9dbe 791d 453e 0713 773c 82d5 843e
000003d0: 3c39 ce3e 8010 7cbd e389 2abf 8c36 013f
000003e0: a0e4 07bf a9b0 47bd da00 10bd 94fb f23e
000003f0: 8cb4 91be f11e 5ebd 890f 94bc d415 78bd
-0.010617553 -0.5006663 -0.034320757 -0.19687524 -0.17384158 -0.031995434 0.057579257 0.5684203
-0.09999618 0.12775524 -0.079826616 0.08304052 -0.017751956 -0.6229146 0.0005353654 0.16549017
-0.21410751 -0.08482509 -0.35650417 -0.5938067 -0.11575378 0.5988663 0.053136475 -0.12375967
-0.24931304 0.07534176 -0.042277303 0.30033123 -0.040729757 -0.29059377 0.05152342 -0.25976032
-0.25770393 0.018465722 -0.22404121 0.052224524 0.19843447 -0.31505555 -0.10902304 0.19763577
-0.3395948 0.038805164 0.28441277 0.314446 0.2702568 -0.103565045 -0.22027662 0.31047893
0.5058657 -0.46285138 0.31099737 0.03333803 0.8622475 -0.27323171 -0.030710207 -0.17599347
0.12122924 -0.023497451 -0.8695116 0.20602465 -0.03205355 0.017842997 0.08577327 0.052975163
-0.35792375 0.09542043 0.22359708 -0.345331 0.042927675 -0.47405985 -0.031747326 -0.12102874
-0.03529306 0.06617239 -0.40742472 0.016511062 0.020136517 0.04735605 -0.08458463 0.37892857
-0.25134596 0.22947958 -0.02597358 -0.6086323 -0.29706088 -0.3952414 0.31530455 0.051737256
0.19160411 0.103759505 0.05819989 0.29719242 -0.08621617 0.17532873 0.031558216 -0.05789425
-0.46931902 0.20673443 -0.53198135 0.14064474 -0.06900957 -0.037896294 -0.37963724 0.05578516
0.011637405 0.17899942 0.05652351 0.00015336425 -0.37151074 0.41071156 -0.56940764 0.1162587
0.16507374 0.6318873 0.8738585 -0.2943387 -0.061459415 -0.23988658 0.00016614665 0.5340618
0.009601772 -0.003524834 0.54829746 -0.036127068 -0.11488983 -0.413573 -0.02433604 0.39650577
-0.12706502 -0.021108769 -0.16476619 -0.15698606 -0.04050996 -0.0012721026 0.8012481 0.021724984
-0.58036506 0.036450885 0.105963 0.30514327 0.017658453 -0.11234145 0.16108023 -0.011543853
0.1665059 0.29798043 -0.35585287 -0.038259882 -0.2305001 -0.39391977 -0.02659551 -0.16872688
0.4417692 -0.28241315 -0.17780206 -0.16685702 0.43426293 -0.08031613 -0.2712771 0.023463206
-0.12357023 -0.023684489 0.20359473 -0.059982345 -0.22642736 0.012288929 0.046016082 0.23458509
-0.08308374 -0.5540068 -0.6769628 0.1606008 0.027201908 0.09136582 0.8451996 0.011488527
0.05608467 -0.3908395 0.12761813 -0.001022628 0.11961343 0.033651937 0.029200155 0.049916536
0.037180882 0.25572821 -0.1938956 0.12698573 -0.6591974 0.069428295 0.076965645 0.025028355
-0.55444884 0.46239018 -0.42479828 0.046533663 -0.05716575 -0.1549446 0.006682731 -0.4424617
0.10547275 -0.3157355 -0.7344431 -0.10487801 0.094798625 0.042953756 -0.010972895 -0.65113187
0.33044523 0.3066073 -0.09686285 0.05385504 -0.34159264 -0.4446064 0.2363115 -0.038770247
-0.010654619 -0.6108448 -0.02105587 0.32054514 0.40176043 -0.1680049 0.08667189 -0.2957436
0.20081569 -0.5101897 0.17601494 0.068219006 0.025794495 -0.09806609 0.2373038 -0.25006425
0.025063219 0.6811327 0.38074937 0.7039249 -0.45637456 -0.006844938 -0.12858555 -0.22076607
-0.3074563 0.19249524 0.01508022 0.25944144 0.4027804 -0.061539173 -0.6661665 0.50473857
-0.5308323 -0.04875246 -0.035157062 0.47457564 -0.2845806 -0.054228727 -0.018073814 -0.060567692

actionNet.2.bias f4 [128]
00000000: b222 2c3d 29df 58ba 0e64 b0bd 0ade 0e3e
00000010: 6094 a73c 85fb 063d aade 0abd 458a 0ebe
00000020: 84f7 58bc ef62 103b 826e 773c 90d7 38bc
00000030: 39af 493d 61f2 ec3c 15eb a9bd 0795 a0bc
00000040: e028 9e3d 6fb5 debc cdfc 843c 3c23 78bd
00000050: 4773 97bc 0da8 85bd 217a 4d3d f175 3f3c
00000060: 8ea3 b5bc e866 4fbd 4cae a9bd f389 0a3d
00000070: d27b b3bd 4e5c 873c 55bb 903c 5793 2cbe
00000080: 9f17 0ebe 3faa 2a3d 40ce 6bbe 09a0 dd3d
00000090: ae44 8c3d 66fe 193d f7af b33c 563a ad3d
000000a0: d6cf df3c 8ee9 11be ba0d 613e 003c 36bd
000000b0: 3320 963d d723 ddba 9a6b 11bd 8631 7abd
000000c0: c141 cdbc 27cb 513d 3a37 0abe 8b9d fc3d
000000d0: 39f9 253d b90b eb3c 54f4 513c ee64 973d
000000e0: dbc6 fdbd ca16 343c 177f 1c3e 4ab5 78bc
000000f0: 87da 8abd 0445 cd3d 852b 8abd 2573 09bd
00000100: 255f 04bd 0e22 09be 8361 dd3c badd 6d3c
00000110: c998 513c b3b3 d83d e21d 27be b9f0 22bd
00000120: 9b28 8ebd 7bd0 7d3c b259 c43d 3e1e 61bd
00000130: 1e02 ac3d d75e bb3c a20b e23c 14c2 713c
00000140: 2a92 14bc 58fd b53d ebc8 013e 2206 aa3b
00000150: 81dd d1be 27a4 78bc b12b a63d 24b7 dcbd
00000160: ccb5 5fbe d78a 86bc 1ec4 ca3d be5b 9fba
00000170: 3fae 4ebb 4882 39bd cb2e 68bd ba16 d5bd
00000180: 210c 4bbd 226a 7b3d d087 3f3e 1c99 f5bb
00000190: 6039 dabd 8fb9 04be 8ad1 a63d 4225 65bd
000001a0: ee38 2c3d 5e38 04bd 49bb 2a3c 37bf 8a3c
000001b0: b9dc 7f3d cac2 003e 9716 adbd eb46 cebc
000001c0: 33cf efbd 1c15 283d 5ce0 41bd 1406 afbd
000001d0: 8384 f93a 2edf db3c e60b 92bb 94ea 13be
000001e0: cc2b 3fbe 962c 08bd b826 08be c594 36be
000001f0: ac8b d0be 0648 323e 68e5 99bd 4a88 d1bd
0.042025276 -0.00082729995 -0.08612834 0.13951889 0.020456493 0.03295471 -0.033903755 -0.13919933
-0.013242606 0.0022031625 0.015102031 -0.011281863 0.04923937 0.028924169 -0.082967915 -0.019602312
0.0772264 -0.027186124 0.016233826 -0.060580477 -0.018487586 -0.06526194 0.0501653 0.011685834
-0.022172716 -0.05063525 -0.082851976 0.033822965 -0.08763851 0.016523506 0.017667452 -0.1685308
-0.13876198 0.041666266 -0.23027897 0.1082154 0.06849037 0.03759613 0.021934493 0.08458392
0.027320784 -0.1424925 0.21977893 -0.044490814 0.0733036 -0.0016871643 -0.035503007 -0.061082385
-0.025055768 0.05121913 -0.1349763 0.123347364 0.04052088 0.028692113 0.0128146 0.07392298
-0.12391444 0.010991761 0.15282856 -0.015179941 -0.06779962 0.10022929 -0.06746582 -0.033557076
-0.0323173 -0.13391897 0.027024036 0.014518196 0.0127927745 0.1058115 -0.16319993 -0.039780352
-0.06941339 0.0154916 0.095874205 -0.05496048 0.08398841 0.022872372 0.027593438 0.0147557445
-0.009068051 0.08886212 0.126743 0.0051887194 -0.40989307 -0.015175856 0.08113802 -0.10777119
-0.21846694 -0.016423626 0.09900688 -0.0012158079 -0.0031536964 -0.04529026 -0.05668525 -0.104047254
-0.049572114 0.061380513 0.18704152 -0.0074950587 -0.10655475 -0.1296141 0.08145435 -0.055943735
0.04204648 -0.03228032 0.010420629 0.016936881 0.062466357 0.12574306 -0.08451574 -0.0251803
-0.11709442 0.041035756 -0.047333106 -0.08546081 0.0019036684 0.026839819 -0.004456985 -0.14444953
-0.18669051 -0.033245645 -0.1329602 -0.17830189 -0.4073156 0.17410287 -0.07514459 -0.10231073

actionNet.4.weight f4 [128, 128]
00000000: 04f1 cabe ba92 10bd 3745 ca3c 950c ddbd
00000010: 1e4b 31bf baf5 7a3e a759 39be 4098 b03c
00000020: 7dca e5bd c2cf 53be 98f2 babd 74ff ccbd
00000030: 18d9 16bc 35a9 3d3e 7d56 e83c 0add 5f3d
00000040: 50fe c03e e9d4 9d3e 04a3 5fbe 306f 953e
00000050: 8771 4d3e d3a5 79bd d00e 48be a382 c83e
00000060: 10c0 103d 1f35 423d a9b6 9e3e 663f 833e
00000070: 3b70 41bf b8d7 2a3e d1d9 aabe 232e efbd
00000080: 52b2 c43e 0a13 9b3e c953 473e a27c 203e
00000090: b689 b73e 57c2 90bd 3608 993e 090e c8be
000000a0: c1a4 bd3d 5ea2 1a3e 9a5e 21bd f386 6e3d
000000b0: 9af8 133c 0d46 44bd 7c2b 1cbf 2d7a c03e
000000c0: ea20 69bc a35a f2bd 059b 4d3c 6bc6 2fbe
000000d0: 3955 f83d 3e35 b6be f5e2 643e 6a2b 0fbe
000000e0: af46 353f bfeb c33d 5daf 91bc 5cf0 9cbd
000000f0: caf5 173e c2f9 02bc 4b30 e83c a72e bc3c
00000100: 9931 ce3c af89 713f d446 2cbe ee0b 0fbe
00000110: 4951 5d3e a0bf 44bf 3163 5c3e 312f 1abe
00000120: 2356 e0be b753 483d df5f 64be 6480 023f
00000130: e0cf 533e 26a6 a63c 449d 8fbd 20f3 72be
00000140: 8678 17bf 5f09 67bd d431 82be 8fc8 843d
00000150: f8cc bebe ea6a 613d cc1a 36bf 548a efbd
00000160: 6845 b33d 913b cdbd 772a b4bd 5969 4cbd
00000170: 0d06 9dbc c274 6a3c 7a1d 403e e419 03bd
00000180: 6415 70bd 44e0 14be 1a89 42bf b49a 8b3d
00000190: 204f d4bd fd73 753e 5d43 203e 7b3b d03d
000001a0: 3a79 01bf 0e00 22bf 83f0 ddbd c157 92bc
000001b0: 34b3 2e3d 6129 37bf e7d4 323e 1fb6 a83e
000001c0: d40c 0c3d 2b11 c0be 69f8 e9bd e18d 5e3e
000001d0: 899c e9bd d2c9 fdbe 80e8 9dbd f523 283e
000001e0: 21c0 5fbe b1ee 2cbf 1d45 8a3c 6586 65be
000001f0: 6fc5 6d3e 73c2 833e 3eb3 183e 1a64 50bb
00000200: 4e99 c73e 6dc2 8dbe 9e84 5dbd 291f d5be
00000210: ebbf a0bc 279e 81bd 4e0d 3bbe 5019 3bbc
00000220: aa15 74bc ecec ac3d f1ee 113f fd6c 12be
00000230: 3b74 8bbd 2382 113e 1308 9bbf 26d3 2b3d
00000240: 63bf 743d db9b 42be c8b9 6d3d a42a e5bd
00000250: c788 e5be 929b d03c e4b8 493e 4ed5 10bb
00000260: 98d4 97be 4a91 b23d 2efa 2ebe 3bbe 95be
00000270: 7a51 ddbe d461 9bbe 4d98 0abf 97d6 a6be
00000280: 593e a63e a3bc 353e efc4 ba3c d776 81be
00000290: 8b78 253d f685 863a c2a1 2d3e c72d e8be
000002a0: 9e6e a93e 7c27 fdbe 0031 c73d 5aaa 563d
000002b0: a0df 6e3e 485b b5be 432b e1bd ad22 be3e
000002c0: 3dd3 09bd d166 3bbe ccfe 14bd 81b1 6abd
000002d0: 84b3 4e3e ef1e 53bd 7f74 a93e 3215 6e3d
000002e0: 42df 6b3e 2ec4 eebd a10a 84bd 6069 07bf
000002f0: 5183 b5bc 2ad2 1dbe ae04 273d 8722 313d
00000300: f2cb 6fbd 07c4 00bf 8a5b eb3d 6cfb 813c
00000310: 5ce2 8dbc 6d53 fcbe 5dca 8dbe c77f 863d
00000320: 6a36 e6be c49e a5bc f656 8bbf 764d c9bd
00000330: 1e6c bd3e 2c9f 073d c071 453d 43bc 9abe
00000340: f73f b23e f05c 2d3f 1e31 813d 4094 8dbe
00000350: 4681 9c3d 3a6d 913d a66f 92be 5354 c63d
00000360: 34c9 963c 1d69 873e 4a46 38be 9f3b a83d
00000370: 6d9d 113f 9d41 0ebb 8daf a03e de62 023f
00000380: 366b 153d 26a2 83bf c033 dfbd 2ca3 7ebd
00000390: 35fa f63d 4ccd b6be 71ac 933e 949d 2abe
000003a0: 42da debd 6cdc 8fbd f304 8abf 4bae 02bd
000003b0: 0f75 c1be 1ee4 653d d4a8 05bf 8ead 31bb
000003c0: 6d7c 9a3e 4a32 83be cc31 6f3d 5be3 cbbe
000003d0: 8e74 e1bd 6ef8 96bc 47c6 f23e 9d6e 253d
000003e0: 2fd0 7ebd c761 803c 45cc 03bf 0d98 90be
000003f0: f001 b5be 4d5b 413e f0a1 8f3e 0bed edb8
-0.39637005 -0.03529618 0.024691207 -0.107934155 -0.69255245 0.245078 -0.18100606 0.021556973
-0.11220262 -0.20684722 -0.09128302 -0.10009661 -0.009207033 0.18521579 0.028361553 0.05465416
0.37694025 0.308265 -0.2183953 0.29186392 0.20062838 -0.060949158 -0.195369 0.39162168
0.035339415 0.04741394 0.30998734 0.25634307 -0.75561875 0.16683853 -0.33369306 -0.11678722
0.38417298 0.30287963 0.19465555 0.15672544 0.35847253 -0.070683174 0.29889077 -0.39073208
0.0925994 0.15101 -0.03939686 0.058234166 0.009031439 -0.047918368 -0.6100385 0.37593213
-0.014229039 -0.11833694 0.012549167 -0.17165534 0.1212563 -0.35587496 0.22352202 -0.13981405
0.7081098 0.095664494 -0.017783815 -0.076630324 0.14839855 -0.007994117 0.02834334 0.022971464
0.025170134 0.94350713 -0.16823894 -0.13969395 0.21613039 -0.76854897 0.21522214 -0.15057065
-0.43815717 0.04890796 -0.22302197 0.5097716 0.20684767 0.020342898 -0.07012418 -0.23725557
-0.5916828 -0.05640542 -0.2542864 0.06483566 -0.37265754 0.0550336 -0.7113464 -0.11696306
0.087534726 -0.10021127 -0.08797162 -0.049905155 -0.019167924 0.014310064 0.18761244 -0.032007113
-0.05861415 -0.14538676 -0.7599045 0.06816617 -0.103666544 0.23970027 0.15650697 0.10167595
-0.505756 -0.63281333 -0.108368896 -0.01786411 0.04265137 -0.71547514 0.17464028 0.32951447
0.03419192 -0.37513098 -0.114243336 0.2173381 -0.1140681 -0.4956804 -0.077103615 0.16419967
-0.21850635 -0.67551714 0.016878659 -0.22414549 0.23219846 0.2573429 0.14912125 -0.0031797946
0.3898415 -0.27687398 -0.05408155 -0.41625336 -0.019622764 -0.06328993 -0.18266794 -0.011419609
-0.014897743 0.08443627 0.5700522 -0.14299388 -0.068092786 0.142098 -1.2111839 0.041949414
0.059752833 -0.19004767 0.058038503 -0.11189774 -0.44830915 0.025464807 0.19699436 -0.0022099796
-0.29654384 0.08719118 -0.17087623 -0.29246697 -0.43226224 -0.30348074 -0.5413864 -0.32585594
0.32469442 0.1774774 0.022798983 -0.2528598 0.04039816 0.0010263312 0.16956237 -0.45347425
0.33092207 -0.49444187 0.09726143 0.052408554 0.23327494 -0.35421205 -0.1099458 0.3713583
-0.03364872 -0.1830094 -0.036375806 -0.057298187 0.20185667 -0.051543172 0.33096692 0.058125682
0.23034385 -0.11658512 -0.0644734 -0.52895164 -0.022157343 -0.15412202 0.040775947 0.04324582
-0.058544107 -0.50299114 0.11492069 0.015866958 -0.01731985 -0.492824 -0.27693453 0.0656734
-0.4496339 -0.020217307 -1.0885913 -0.098292276 0.3699655 0.033110783 0.048204184 -0.30221757
0.34814426 0.67719936 0.063081965 -0.27652168 0.076418445 0.071009114 -0.28600806 0.09684052
0.018406488 0.26447383 -0.17995563 0.08214497 0.5688084 -0.002170659 0.31383935 0.5093211
0.036479197 -1.0283859 -0.108985424 -0.06216733 0.12059442 -0.35703504 0.288425 -0.16661674
-0.10881473 -0.07024464 -1.078276 -0.0319045 -0.3778462 0.056125753 -0.52210736 -0.0027111503
0.30173054 -0.25624305 0.0583971 -0.39821896 -0.11008559 -0.018429007 0.474169 0.040388692
-0.062210258 0.015671624 -0.51483566 -0.28241006 -0.3535304 0.18882485 0.28053236 -0.00011345193

actionNet.4.bias f4 [128]
00000000: 7c41 a33d 4b0e a73d cc0b 7c3e a232 fabd
00000010: f992 5a3e b2f4 b43c 9475 353e 722c 703e
00000020: 4be5 403e 5110 8b3d 0b20 04bd 6034 703e
00000030: abe5 1cbb ed78 133f b8ee c23d f0b9 24be
00000040: 71a5 d63e f2b1 1ebd 8823 69bd 9b6c bd3d
00000050: 4845 033e 0c03 a93e ebeb 65bd dda8 80bd
00000060: dc6f 03bc e824 a53d 125a 483e 52f9 943d
00000070: 6697 88bd 327f 833e d7d2 3e3d b40f ac3e
00000080: a5cd 953d 3668 c73d f662 f13d 13d2 9e3d
00000090: 7365 d93d bca2 d9bd bd5b 023e c562 f93d
000000a0: 43d1 1d3e 2962 a03d 39fa 423e f123 343e
000000b0: f8d9 2d3e 9c66 29bc 0400 fc3d 163c 453d
000000c0: 4562 99bc 2e7d 413d 06fa 023d 6914 a93d
000000d0: 700c 45be 5734 e4bc d762 41bd cb55 2dbd
000000e0: e0a8 353d c8a9 283e bdec 8dbe 5d57 6d3e
000000f0: 3474 703b 71d5 de3d 3bf7 72bc bc17 073e
00000100: 79b2 a53d d39f c93d 4377 7dbc 63a1 c33d
00000110: 8b80 12bd 390b d13d c844 4e3e 3bd0 293e
00000120: 2335 c23d 242d 3ebe a10b 283e d192 773e
00000130: cc00 423e 530e 403e 7dcb 883d 00a7 dc3d
00000140: ba2c 103e b04d 3d3e 7179 c53d 8407 973e
00000150: 4e5b d63d 4a4e 013e e9a0 433e 0c94 42bd
00000160: 8c6c 5b3e aaeb fa3d 18db 653e b9e6 233e
00000170: 7ac2 463e 305b 1f3d 0837 a83d fb42 c83d
00000180: 081f 49bd 1a2d 153e 0e15 9d3c 7024 1abd
00000190: e8ef ffbd 7105 1dbe fce9 083e 1dce de3d
000001a0: 0377 483d c5a6 bd3d e5d2 633d 03f7 063e
000001b0: 87a6 c33d ae49 9cbd 83c3 0d3e c926 3d3e
000001c0: f881 16be ecb4 323e b060 a2bd e616 133e
000001d0: 10eb 833e 1775 34bc df4f e13d 842d 803a
000001e0: f93e b53d 17b1 da3d 4741 153e 6d97 3b3d
000001f0: 35f3 7a3e e880 a43d 5419 debb 0086 803e
0.079714745 0.08157023 0.24613875 -0.12216689 0.21345128 0.022089336 0.17720634 0.23454455
0.18837468 0.067902215 -0.03225712 0.2345748 -0.0023940604 0.57606393 0.09518188 -0.16086555
0.41923097 -0.03874392 -0.05691865 0.092492305 0.12819397 0.33010137 -0.056133192 -0.06282208
-0.008022275 0.0806368 0.19565609 0.072741166 -0.06669502 0.2568298 0.04658779 0.3360573
0.07314614 0.097366735 0.117864534 0.07754912 0.10615053 -0.10626742 0.12730308 0.12177042
0.15411858 0.078312226 0.19040765 0.17591836 0.1697768 -0.010339405 0.123046905 0.048153006
-0.018723616 0.04723852 0.031976722 0.08255846 -0.19243026 -0.027856989 -0.0472134 -0.042318147
0.044350505 0.16471016 -0.2771968 0.23177858 0.0036690356 0.108805545 -0.014829452 0.13192648
0.080906816 0.09844937 -0.015470329 0.095522664 -0.03576712 0.10207219 0.20143425 0.1658334
0.09482791 -0.18571907 0.16410686 0.241771 0.18945616 0.18755464 0.06679437 0.1077404
0.14079562 0.18486667 0.09642304 0.2949792 0.10466634 0.12627521 0.19104351 -0.04750447
0.21428126 0.122519806 0.22446859 0.16005982 0.19410124 0.038905323 0.082136214 0.097784005
-0.04910186 0.14567986 0.019175079 -0.037632406 -0.1249693 -0.15334107 0.13370508 0.10879157
0.048941623 0.092603244 0.055621047 0.13180165 0.09553247 -0.07631241 0.13844113 0.18471827
-0.14698017 0.17451829 -0.07928598 0.14364204 0.25765276 -0.0110142445 0.11001562 0.000977919
0.08849902 0.106783085 0.14575683 0.045798708 0.24506839 0.080323994 -0.0067779217 0.25102234

actionNet.6.weight f4 [80, 128]
00000000: 2f95 703c 9620 603e 86b0 c63d 824c 2e3e
00000010: c965 1bbf b655 913e ffff 0a3e 5df4 da3e
00000020: 2d9b 8abe bd73 e0be d1fc d2be f04a 923c
00000030: c76f 3cbe d074 9abe 25ce f7bd fa16 d5be
00000040: 291e c83e a63e 3d3e 34f8 68be 7048 b43e
00000050: 1a2a 003f 43c2 bebe ad93 efbd 3e56 81bc
00000060: 53e3 86be 5304 a53e 9df5 1b3e 8d9a 29bf
00000070: 2fa7 81be f45f adbe b915 8fbd 91f4 6d3e
00000080: 3088 723e cdd1 d53e 3ad6 f7be 7f90 cdbc
00000090: d5bf afbe ce87 44bc 23d8 d3be 6c64 81be
000000a0: 97df 4a3c 6137 0b3e 5e9d f63e b126 fdbd
000000b0: 3a95 80be f2f7 183e 188f 263f e740 c83d
000000c0: 39ab 7cbe e7b7 9d3e d9b4 84be 5129 463c
000000d0: 0c33 cb3e 726e a8bd 93e2 1b3f 6d8f ee3d
000000e0: 92e6 2abe 8441 f33e 1092 54bf 98ba 84be
000000f0: 8254 613f ce9b 3d3e 521e 393e 0df2 d4be
00000100: f059 9e3f c790 41be aff1 a9bd 94c4 bbbd
00000110: 450c 07be 87b1 033f 0bce ac3e 1a0e bb3c
00000120: a900 5e3e 2fd5 c53d 5845 513c 1849 75bf
00000130: 4b81 9b3e 3583 8a3c d05e 063e 2c5b 4cbe
00000140: a5a4 cd3d ba92 03be 0f7a 533e 92aa 1cbb
00000150: 64ff e0be c43f 49be 974b 443e 7b92 1a3f
00000160: e90a c6bf 94b9 3abf 3766 ddbd 4721 82bc
00000170: 97f9 b2bd e2f1 a73e 060f 32be 2479 823e
00000180: bb4c 72bc 3ca2 a1bd bf23 17bf fb3e dbbd
00000190: 2c8a 84be f5ae c43e 530b 42be 1333 983e
000001a0: 192e c7be a245 873d a3e8 893e 654e 613e
000001b0: f219 37be 52e9 c23e c63b b3be aa62 e53e
000001c0: 246b 103f d886 be3e 91c3 883e bbea a6bc
000001d0: f8c3 c3be 31b5 e8be 7fea 363d dfb5 943e
000001e0: 1ad5 fc3e 4aab 69be 779a bebe 3389 b2be
000001f0: 43d5 a8bd a735 8b3d 6cba 053e 40e4 1cbe
00000200: acda 86be a1f2 92bd 9010 d23e 644e 3bbe
00000210: 60ab be3d 5587 7f3d 150a 17bc 1c83 903e
00000220: 0290 a43d 4911 3e3e fa2d 40bf b66c 933c
00000230: aaf7 44be 00ed 1bbf ff21 80bd 40f8 9bbd
00000240: ec11 a4bd 73b2 83be 72ac 60be a7b8 03be
00000250: e76e dfbe 17e2 1fbe 7253 bdbd eeb4 9b3d
00000260: f020 ca3d 7b22 303d 3c2f 99be f67e c43d
00000270: 1281 3fbd ce17 19be c634 35be 35f7 a4bd
00000280: 9348 a53e 1857 803e 5bd0 5bbe 769e 193e
00000290: d159 c83e c8bc 743c 6992 cb3b a4ba bc3d
000002a0: 3a94 1bbd 13da 503e f7ff 023e 2f6e 53be
000002b0: 79da bcbe 17ca 263d a286 11bf a9ea b03e
000002c0: 8954 d93d 519a a73e e001 c03e e8a2 873d
000002d0: cd46 863e a07f c23d 83a1 043f 3505 863e
000002e0: c930 c03e 1555 e0bc c8da f73e 6398 1b3e
000002f0: a561 d73e e48e 01be b261 233e ba87 5cbe
00000300: 0d14 9d3f b004 843e 1682 033f d39d 863d
00000310: 6164 183e 32a2 6dbe 8db8 4a3e dc53 e5bd
00000320: 4f6e ca3c c2cd d8bd cd3c 5e3e 7b3d 0ebf
00000330: a367 c2bd 2ef8 a7be dce2 ff3d 2c5b fd3e
00000340: 9619 cf3e c716 1ebf 06d5 5d3d 457e 8abe
00000350: e89b 66be b1df 0d3e 2150 ba3e 72e9 e53e
00000360: 16e6 1abf 05bb 2bbe 7618 bfbe 3c2a aabd
00000370: 468e 2c3e d509 193d d8b8 833e fd80 1abe
00000380: 1140 15bd f47d d6be 6b6d dbbe 62da ed3d
00000390: ac7e 15bf 362e f93c 5c8d 4c3f 9373 aa3d
000003a0: 7c60 863c c4dc ac3d d85a c4bc 6bf3 353d
000003b0: 9ba5 dc3c 21da 413d eb4e 51be 72d6 1ebd
000003c0: 50bf f73c dcd4 d63e e3eb 5a3f b887 083c
000003d0: 039b b3be b3f3 00bf 6a2b d0be 971b a03d
000003e0: 5891 ff3d 42e7 603e 28a8 1dbe f59e f1be
000003f0: ad34 b33c 9d7d 36be a5e1 01bf e5ef 04bf
0.014684006 0.2188743 0.09701638 0.17021373 -0.60702187 0.28385705 0.13574217 0.4276456
-0.27071515 -0.438383 -0.4120851 0.017857999 -0.18402015 -0.30167246 -0.12099866 -0.41619092
0.3908551 0.1848093 -0.22750932 0.35211515 0.5006424 -0.37257585 -0.11698089 -0.015788194
-0.2634531 0.32229862 0.15230413 -0.6625145 -0.25322863 -0.3386227 -0.06986565 0.23237826
0.23684764 0.41761628 -0.4840563 -0.025093315 -0.34326044 -0.011995269 -0.41375837 -0.25271928
0.01238241 0.13595344 0.48166937 -0.123608954 -0.2511385 0.14938334 0.65062094 0.09778004
-0.24674691 0.3080437 -0.25919226 0.012094812 0.39687383 -0.08224191 0.608926 0.1164845
-0.16689518 0.47510922 -0.83035374 -0.2592361 0.88019574 0.18516466 0.18077973 -0.4159092
1.2371197 -0.18902884 -0.082980506 -0.09168354 -0.13188274 0.5144276 0.33750948 0.022833873
0.2167994 0.09659802 0.0127728805 -0.9581466 0.3037208 0.016908268 0.13122106 -0.19956654
0.10041169 -0.1284894 0.2065203 -0.0023905379 -0.43944848 -0.19653231 0.1916946 0.6037976
-1.547208 -0.7293942 -0.108105116 -0.015885008 -0.08739012 0.3280173 -0.17388543 0.25483048
-0.014788802 -0.07892272 -0.5903892 -0.10705372 -0.25886667 0.38414732 -0.18949632 0.29726467
-0.38902357 0.06605078 0.269353 0.22002561 -0.17880991 0.38068634 -0.3500654 0.44801837
0.56413484 0.37212253 0.26711705 -0.0203756 -0.3823545 -0.45450738 0.044657227 0.29045007
0.49381334 -0.22819248 -0.37227222 -0.348703 -0.082438014 0.06797343 0.13059396 -0.15321445
-0.26338708 -0.07175184 0.4102826 -0.18291622 0.09310031 0.062384922 -0.009218712 0.2822503
0.0803528 0.18561281 -0.75070155 0.017996173 -0.19235101 -0.6090851 -0.06256484 -0.07615709
-0.08011231 -0.25722083 -0.21940783 -0.12863408 -0.436393 -0.1561359 -0.092444316 0.07602869
0.098695636 0.043001633 -0.2991885 0.095945284 -0.04675395 -0.14950487 -0.17695913 -0.080549635
0.32281932 0.25066447 -0.214662 0.15001854 0.39131024 0.014937587 0.006212522 0.092152864
-0.037983157 0.20395689 0.12792955 -0.206475 -0.3688543 0.04072007 -0.5684606 0.34554031
0.10611827 0.32734922 0.3750143 0.06622869 0.26225892 0.09496999 0.5180895 0.26175848
0.3753722 -0.02738432 0.48409104 0.1519485 0.42066684 -0.12652165 0.15955237 -0.2153615
1.2271744 0.25784826 0.5137037 0.06573071 0.14882042 -0.23206404 0.19796963 -0.111976355
0.024710802 -0.1058612 0.21702881 -0.5556256 -0.094924234 -0.32806534 0.12494442 0.4948362
0.40449208 -0.61753505 0.054158233 -0.2704946 -0.22520411 0.13854863 0.36389259 0.44904667
-0.60507333 -0.16770561 -0.3732335 -0.08308837 0.16851148 0.037362892 0.25726962 -0.15088268
-0.03643805 -0.4189297 -0.42856917 0.11613919 -0.5839641 0.030417543 0.799032 0.08322825
0.01640343 0.08440545 -0.023969099 0.044421595 0.026934436 0.047327165 -0.20440261 -0.03877873
0.030242592 0.41959274 0.85516185 0.008333139 -0.35079202 -0.50371855 -0.40658122 0.07817762
0.12478894 0.21963218 -0.15396178 -0.47191587 0.021875704 -0.17821355 -0.5073493 -0.5192855

actionNet.6.bias f4 [80]
00000000: eb98 753d 2df9 3abe 054c 823e a615 9d3e
00000010: ccf1 77be 74e2 93be ebc4 283e 37e4 8c3e
00000020: f913 22bd c9b6 94be 4be1 8abd 9735 643e
00000030: 5b83 1dbc ecab 04be 6b2e e3bd df25 4fbe
00000040: 02a9 e53c 3ad7 a0bd 551a b3bd a45f 98bb
00000050: e5b8 0f3e dce3 09bd e953 f63c 9545 e2bd
00000060: a8e4 553d b3d7 f2bd 8401 1abe 3a4b ca3d
00000070: 0982 d2be b687 a1bc db52 96bd 6a40 063e
00000080: 5473 b93d c678 babc 7e8f cdbc d1a3 53bd
00000090: c46d 2dbe 1699 58bd 513f 8fbc 2b23 bc3d
000000a0: 7422 34be 6fa5 4a3e 4b10 2abe 8649 d33d
000000b0: 8730 833c 8c93 02be c84f 24be c6c6 463d
000000c0: d5eb bc3d 0f79 8f3d 5f78 8a3e 023c 883e
000000d0: d04a 303e 861f a5bb 7f73 9c3d 08dd a63e
000000e0: 104f 823e 62a7 283e f491 f2be 9b6f 4b3e
000000f0: 6107 a63e a5ff 223d bd76 84bd 8ce7 09bc
00000100: 79c4 26be 6970 993e df52 303e c81f 4cbe
00000110: ca01 813e b87e 7cbe 30f2 c3bd 6399 db3d
00000120: 818b 48be f27b d53d f5a4 253e 573f 10bd
00000130: acfd 973d 29ac 60be af51 393e ee84 9d3e
0.059960287 -0.18259116 0.25448623 0.3068058 -0.24213332 -0.28883708 0.16481368 0.27517864
-0.03956983 -0.29045704 -0.067812525 0.22286068 -0.009613837 -0.12956208 -0.11092838 -0.2022929
0.02803469 -0.07853551 -0.08745257 -0.004650073 0.14035375 -0.03366457 0.030069308 -0.11048428
0.052220017 -0.118575476 -0.1503964 0.098776296 -0.41114834 -0.019718032 -0.07340022 0.1311051
0.090552 -0.022762667 -0.025092836 -0.0516699 -0.16936404 -0.05288037 -0.017486246 0.09186395
-0.17591268 0.1978967 -0.16607778 0.10316758 0.01601435 -0.12751597 -0.16046059 0.04852941
0.09224669 0.07005512 0.2704496 0.26608282 0.17216039 -0.0050391583 0.07639217 0.32590508
0.25450945 0.16470101 -0.47376978 0.19866793 0.32427505 0.039794583 -0.0646796 -0.0084170215
-0.16285886 0.29968575 0.17219113 -0.19933999 0.25196677 -0.24657714 -0.09567678 0.107226156
-0.19584467 0.10424031 0.16176207 -0.035216656 0.07421431 -0.21940674 0.18097566 0.3076548
